checkpoint/rascanet_210x240.pth.tar (torch, 622736 bytes, 161 tensors)

raster_cnn_0.conv_block1.conv.weight f4 [6, 3, 3, 3]
000000 49 7a 35 3e 97 93 03 3f 6f 19 93 bc a0 cf 00 3d
       0.1772243 0.5139708 -0.017956464 0.031448007
000010 98 2f 08 3f 98 81 57 3e 35 97 37 3d 71 d4 a3 3e
       0.5319762 0.2104553 0.044821937 0.31998017
000020 4d c1 09 be 93 3f f9 be 12 df 76 bf 63 2b 10 bf
       -0.13452645 -0.48681316 -0.9643413 -0.563162
000030 99 7b 4a bf 0c e3 a4 bf ce 51 5e bf 76 fc f5 be
       -0.79094845 -1.2881789 -0.86843574 -0.48044175
000040 f0 73 61 bf 4e 6b fa be 7b 9d 4b 3e 1a a9 d9 3e
       -0.8806753 -0.48909992 0.19884293 0.42511827
000050 e9 03 d2 3e 24 84 2d 3f ab 2c 1f 3f d6 73 27 3f
       0.41018608 0.67779756 0.6217753 0.65411127
000060 0e fd b3 3e 30 f9 0d 3f 94 a2 13 3f 93 34 1d bd
       0.35154003 0.55458355 0.5766995 -0.038380217
000070 dd 3b 3e bf 00 5b fb be e3 8f b1 bf 2b 67 ae bf
       -0.74310094 -0.49092865 -1.3872036 -1.3625234
000080 a1 ce c0 bf 7d 09 3f bf 89 7e 75 bf 0d 43 56 bf
       -1.5063058 -0.7462385 -0.958962 -0.8369606
000090 da 81 aa 3e 96 ac 56 3e 59 8a a2 3e 4c a2 cd bd
       0.33302194 0.20964274 0.31746176 -0.10040721
0000a0 4c 68 bb be 9a 74 c7 be fe 4b 85 3e ce a9 a2 be
       -0.3660301 -0.38956147 0.2603454 -0.31770176
0000b0 b4 7b 33 be a4 00 22 3f b6 54 de 3e 61 d4 e2 3e
       -0.17527658 0.6328223 0.43424004 0.44302657
0000c0 6c 12 2f 3e af f2 fb 3d aa d5 70 3e c8 59 26 3f
       0.17096871 0.123021476 0.23519006 0.64980745
0000d0 fc a0 af 3e 01 de b3 3e 30 9c 1b bf 48 cc 61 bf
       0.3430251 0.35130313 -0.607852 -0.88202333
0000e0 bb 42 82 3b 4b 65 93 bf 08 b2 80 bf f9 66 25 be
       0.00397524 -1.1515287 -1.0054331 -0.16152562
0000f0 8d 4e fe be bc 73 77 be f4 e5 6a 3e 22 7a c3 3e
       -0.49669304 -0.24165243 0.22939283 0.38179117
000100 32 1a 07 3f 06 a8 10 3e 53 4a ac 3e a8 05 e3 3e
       0.52774346 0.14126596 0.33650455 0.44340253
000110 1c 3c bf 3e 0f dd ad 3e 31 1a 15 3e c9 3c 70 3e
       0.37350547 0.33957717 0.14560772 0.23460688
000120 93 98 27 3f 88 78 5c 3f ac 51 df bd 08 b3 92 3f
       0.65467185 0.86121416 -0.109042495 1.1460886
000130 cb 96 55 3f ff d3 d1 be af 71 85 3e 8b 20 11 3e
       0.83433217 -0.40982053 0.26063296 0.1417257
000140 21 0b fa be a4 49 df be 1c c6 06 bf 5f 35 0d bf
       -0.48836616 -0.4361087 -0.5264604 -0.5515956
000150 05 5e 98 bd 84 48 37 3e a9 96 85 3f 27 21 9e be
       -0.07439808 0.17898756 1.0436603 -0.30884668
000160 88 85 d0 3e 75 06 a2 3f 95 4e c0 3c 2d 7f 8b bc
       0.40726876 1.265822 0.02347497 -0.017028416
000170 b3 7a be 3e ee 14 82 3e 23 50 49 bf 27 93 10 bf
       0.37202987 0.25406593 -0.78637904 -0.56474537
000180 8a b8 80 3d 0a 89 2c bf 47 eb 29 bf 19 ab f2 3e
       0.06285198 -0.67396605 -0.6637463 0.47396162
000190 7d 4d 13 3f c4 89 88 3e 88 d4 e0 3e 96 eb 6e be
       0.5754011 0.26667607 0.43912148 -0.23332056
0001a0 4e 56 99 bf 53 11 89 3e 20 9a 41 be ac 2a 83 bf
       -1.1979463 0.2677103 -0.1890645 -1.0247397
0001b0 4a f8 76 3f e1 41 5d be 96 d8 d6 bd a1 c1 61 3f
       0.9647261 -0.21607162 -0.10490529 0.8818608
0001c0 5e a0 fc be d6 1c 9b 3d 3b 43 39 3f 95 51 48 bf
       -0.493411 0.075738594 0.7236821 -0.78249484
0001d0 25 cd fa be 69 b3 a3 3e 26 47 55 bf d7 ee 4d 3d
       -0.48984638 0.31972817 -0.8331169 0.050276604
0001e0 87 c5 cf 3e 73 59 f3 be a2 60 85 3e 0c 8d fc 3e
       0.4058039 -0.47529182 0.26050287 0.4932636
0001f0 ea fc 40 bf 3a dd a0 bd 12 ca e4 be 50 bf 3a bf
       -0.75385916 -0.078546956 -0.44685417 -0.7294817
000200 5c 63 d6 3e 29 3a 02 bf 6a 3b 9a be 5f 16 53 3f
       0.4187268 -0.50869995 -0.30123454 0.8245601
000210 66 c8 bb bd 6b a2 89 bd fe 16 6a 3f 22 02 22 3e
       -0.09169082 -0.06720432 0.91441333 0.15821126
000220 77 65 a3 3e 04 23 ba 3d 2a ea 17 3f a6 1f 69 3f
       0.3191335 0.0908871 0.5934168 0.91063917
000230 08 da fb 3e 6b d8 2e 3f 5b e4 5a 3f a1 c6 8b 3e
       0.49189782 0.6829898 0.8550469 0.2729998
000240 bb 6f ca be 15 4b 13 bf 9d c2 3d be 62 96 40 bf
       -0.3953837 -0.5753644 -0.1853127 -0.75229466
000250 6f ff 84 bf 5d 69 2d bf 41 60 4f bf 60 57 85 bf
       -1.0390452 -0.67738897 -0.81006247 -1.041729
000260 93 27 d1 be e2 7e ed 3e a4 32 16 3f 33 61 17 3e
       -0.40850505 0.46385866 0.5867102 0.14783172
000270 eb 3d 9f 3e 3c 18 a7 3e bf 2d 27 3e d1 35 49 3e
       0.31101927 0.32635677 0.16326044 0.19649436
000280 af 5c 51 3e b3 b0 e1 3d
       0.20445512 0.11020031

raster_cnn_0.conv_block1.bn.weight f4 [6]
000000 48 74 b3 3f bf 12 75 3f 93 e6 83 3f f3 bf 58 3f
       1.4019861 0.9573173 1.0304741 0.8466789
000010 36 dd b9 3e ec 4d 6f 3f
       0.36301583 0.93478274

raster_cnn_0.conv_block1.bn.bias f4 [6]
000000 80 20 c5 3f 5f b4 64 bf ba 48 39 3f 42 76 2a 3e
       1.5400543 -0.89337724 0.72376597 0.16646674
000010 0b 5a 3f 3c fa 14 dd 3f
       0.011679183 1.7272027

raster_cnn_0.conv_block1.bn.running_mean f4 [6]
000000 2e 15 b3 c1 80 e6 4c c1 b5 6b a0 c2 5d 95 16 42
       -22.385342 -12.806274 -80.210365 37.645863
000010 e7 66 90 40 a4 35 22 c1
       4.5125613 -10.138096

raster_cnn_0.conv_block1.bn.running_var f4 [6]
000000 98 72 8b 46 e9 e6 24 48 77 4f 32 47 87 00 6f 46
       17849.297 168859.64 45647.465 15296.132
000010 35 42 2f 45 a5 85 87 46
       2804.138 17346.822

raster_cnn_0.conv_block2.conv.weight f4 [11, 6, 1, 3]
000000 49 c2 dd be dd 3f ef be de b0 10 3f d8 a5 7c bf
       -0.4331229 -0.4672841 0.5651988 -0.9869056
000010 56 e7 78 3f 6c bd 89 3e 06 97 74 be 1d 45 10 be
       0.9722799 0.2690233 -0.23885736 -0.14088865
000020 64 a6 b6 3e c1 8e 6f bf 57 1d 20 3e 24 ac 94 3e
       0.3567382 -0.935772 0.15636192 0.29037583
000030 6b 66 d8 bf d7 c5 a4 3d f3 b5 c9 bd d0 ed 35 3f
       -1.6906255 0.080455475 -0.09849157 0.71066
000040 28 d7 34 3f 44 a0 3d bf 22 c9 b5 3d 3e 55 c7 be
       0.706408 -0.7407267 0.08876254 -0.38932222
000050 8a 92 e4 3d 50 a9 5c 3f 9f 98 7c 3f 2d fa 99 3f
       0.111607626 0.8619585 0.9867038 1.2029473
000060 0f 37 e3 bd 4f fb 94 be 20 aa d8 3e d1 01 12 3e
       -0.11094486 -0.29097983 0.42317295 0.14258505
000070 6e 4d 1e 40 56 b8 43 3f 69 83 de bd 91 a7 1d bf
       2.473476 0.7645315 -0.10864908 -0.6158381
000080 f5 46 ee bd df d3 dc 3c da d4 fa bd c8 47 ea 3d
       -0.11634628 0.026956497 -0.122476295 0.114394724
000090 89 98 20 be c5 8a 3c bf 0d 8d 2f bf 64 4d 7e bd
       -0.15683188 -0.73649246 -0.685746 -0.062085524
0000a0 2f 31 5b bf 1f 25 59 bf e0 c4 72 3e 50 06 32 bf
       -0.85621923 -0.8482227 0.23707914 -0.6954088
0000b0 96 df 6d bf 0f 53 a5 3f e4 06 07 3f 9b 21 79 3e
       -0.9291929 1.2915972 0.5274489 0.24329226
0000c0 b2 ea 90 bc c9 d0 ec 3e c1 67 c2 3e 98 a7 51 be
       -0.017690036 0.4625304 0.37969783 -0.20474088
0000d0 60 8f 6d 3d 2f b5 51 3d f6 c4 06 3f 55 ec e2 bd
       0.05799806 0.05119818 0.5264429 -0.11080233
0000e0 20 2c 44 be 0f 3e aa bf 4b a7 a4 3e c7 fd 4a 3e
       -0.19157457 -1.3300189 0.32158884 0.19823371
0000f0 90 20 77 bf 96 d9 01 be 7a f8 e3 3e 0b 4f bc 3d
       -0.9653406 -0.12680659 0.4452551 0.09194764
000100 66 0e 1d be 29 93 2b be a0 a8 a6 bd f0 00 35 bc
       -0.15337524 -0.16755356 -0.081376314 -0.011047587
000110 ca 22 a0 bd 80 95 b4 3f f0 b2 99 be fa 91 6c bf
       -0.078191355 1.4108124 -0.3001933 -0.9241024
000120 43 9a c4 3f 11 10 77 3d 64 a3 95 bb 28 1b fb 3d
       1.5359577 0.060318056 -0.004566597 0.12261039
000130 93 4b 2e be 74 df 4c 3e ed 99 0f 3f 9b 56 68 3f
       -0.17021017 0.20007116 0.5609425 0.9075715
000140 a6 77 81 3e a1 7c bf 3e e6 d5 85 be 57 d2 9d 3c
       0.25286597 0.37399772 -0.26139754 0.019265337
000150 d1 66 30 be 27 11 aa be 55 aa 5b be 59 88 5f 3f
       -0.17226721 -0.3321621 -0.21451695 0.87317425
000160 83 fe 15 3c 0f 2e 02 bf 64 4f 50 3f 66 76 06 3e
       0.009154919 -0.5085153 0.8137114 0.13131103
000170 45 2e 6b be c6 9c 45 bf 31 fb d0 be ab 9f 83 3e
       -0.22966869 -0.7719234 -0.40816644 0.25707754
000180 f3 33 56 bf 4f 1a 4f bf 48 73 1e 3e 01 b7 a8 3e
       -0.8367302 -0.8089952 0.15473664 0.3295212
000190 01 4f cc 3d 8f 92 df bc e3 34 11 be a6 2d e7 bd
       0.09976006 -0.027291564 -0.14180331 -0.112880036
0001a0 9a fc ff bd 72 32 a4 3f a7 b7 8e 3f 70 90 da bb
       -0.12499352 1.2827895 1.1149796 -0.0066700503
0001b0 8a 53 7f 3d 8e 9e c9 be 3a 72 04 bc 7c 23 7d 3f
       0.06233553 -0.3937878 -0.008083874 0.9888227
0001c0 f7 f0 3c be bf 39 43 bf e5 04 bb 3f fd fa 6e be
       -0.18451296 -0.7625999 1.4610869 -0.23337932
0001d0 1f 30 1b bf d9 43 9f 3d 4d 01 7e be 9a d2 5d 3e
       -0.606203 0.07776613 -0.24805184 0.2166237
0001e0 be e6 80 3f 83 80 a6 3f df bc b3 3e 3c 4f fd 3d
       1.0070417 1.3007969 0.35105035 0.123686284
0001f0 2b c7 d9 3e 9e 3f dc 3d 93 05 72 3f 37 be a1 3e
       0.42534766 0.107543215 0.94539756 0.31590435
000200 21 e6 d2 bf e0 1c fa 3e 8d f5 83 3d f1 da 64 bf
       -1.647648 0.48850155 0.064433195 -0.8939658
000210 32 1f 09 be 2f f4 4c 3e 61 60 10 3e 81 69 30 be
       -0.13390806 0.20015024 0.14099266 -0.17227747
000220 2d 20 19 3e b7 e2 cd bc 3f fd 77 bc 99 8f 9b 3e
       0.1495368 -0.02513252 -0.015136062 0.30382994
000230 ab ae 89 be 4c fe 89 3d 06 cf b2 3e 3c 7a 2d bf
       -0.26891074 0.067379564 0.3492357 -0.6776464
000240 d8 7a 98 be 78 58 88 bf ca 1f 7f 3f fb 9d 97 bd
       -0.29781222 -1.0651999 0.9965788 -0.07403179
000250 a5 ae 40 bf 98 e5 2d 3f db 0d 65 3e bf 69 33 be
       -0.75266486 0.6792846 0.22368567 -0.17520808
000260 08 6c 09 3e a6 9e 6b be 4e 99 2f bf 45 b3 61 3e
       0.13420117 -0.23009738 -0.685933 0.22041042
000270 1a 9f 0f be 4f 8b 98 3e 9a 91 43 3e 39 00 5d bd
       -0.14025536 0.29793784 0.19098511 -0.05395529
000280 4c ae 97 bf 1c 58 81 3e 7d 6e 20 be 39 82 f3 bd
       -1.1850066 0.25262535 -0.15667148 -0.118900724
000290 8e 71 c9 3e bb 43 6a 3e 89 af e9 3e 1c b9 26 bf
       0.39344448 0.228774 0.45641735 -0.65126204
0002a0 1e 5b 16 bf ff c0 55 bf 8d 6a 9f 3f 41 6f 42 3f
       -0.58732784 -0.83497614 1.2454392 0.7595101
0002b0 3e 66 9e bf dc 3b ae 3d 85 d0 97 bd fb 70 37 3f
       -1.2374952 0.08507511 -0.07412819 0.7165677
0002c0 25 0d 9a 3d f8 6a 81 3e 63 39 98 be 22 64 4f be
       0.07522038 0.25276923 -0.29731283 -0.20253041
0002d0 72 85 6d 3f ac f6 07 3f 03 d2 69 be 58 5b aa 3e
       0.92781746 0.53110766 -0.2283402 0.33272815
0002e0 1e 6c 0d 3d 03 9c 0c bf dd a9 c8 3c 07 9f fc be
       0.034526937 -0.54925555 0.02449506 -0.49340078
0002f0 9c b8 61 be 8c b6 9a 3f 9f c1 b1 3e 70 bf 16 be
       -0.22043079 1.2086959 0.34718034 -0.14721465
000300 66 3a b3 3f 00 d3 31 3d b8 30 23 3e 2f 6d 99 be
       1.4002197 0.043414116 0.15936553 -0.29966113
000310 a9 0e 40 bf 6f 46 b4 3e
       -0.7502237 0.35209987

raster_cnn_0.conv_block2.bn.weight f4 [11]
000000 19 5e 58 3f 43 51 74 3f aa 55 88 3f db f0 9d 3f
       0.8451858 0.95436496 1.0651143 1.2339128
000010 63 ed da 3f b7 4f 27 40 7f 16 0f 3f 90 27 8f 3f
       1.7103695 2.6142404 0.558937 1.1183949
000020 a4 5c 65 3f 83 6e 2b 3f f5 de 68 3f
       0.89594483 0.669655 0.90965205

raster_cnn_0.conv_block2.bn.bias f4 [11]
000000 ba 7e 21 3f 11 c0 05 bf 90 61 86 3e ce 81 43 3f
       0.63083994 -0.52246195 0.2624631 0.7636994
000010 05 97 00 bd 7d b7 42 3f b3 a0 17 3f 3f a5 ed 3e
       -0.031394023 0.7606123 0.5922958 0.46415135
000020 fd 21 78 3e 54 66 11 bd 10 b5 34 3f
       0.24231716 -0.03549798 0.7058878

raster_cnn_0.conv_block2.bn.running_mean f4 [11]
000000 a1 89 e7 3d ce fe bb 3f ad 51 47 c0 aa 4e 94 bd
       0.113055475 1.4687135 -3.11436 -0.072415665
000010 a8 51 9b 40 b7 16 86 40 d3 1e cc 3f e3 61 78 bf
       4.853718 4.190273 1.5946907 -0.97024363
000020 1e 08 22 c0 fc f9 f2 be d0 3a 96 3f
       -2.5317454 -0.47456348 1.1736698

raster_cnn_0.conv_block2.bn.running_var f4 [11]
000000 bc 3a 69 3f 63 15 60 40 cb 4f be 40 20 e2 51 3f
       0.91105247 3.5013053 5.9472404 0.81985664
000010 5f 11 b1 40 85 f6 05 41 86 e2 76 3f cb 83 84 3f
       5.5333705 8.372685 0.964394 1.035272
000020 ae 5f e3 3f 12 15 c0 3e f4 c0 8b 40
       1.7763574 0.37516075 4.367304

raster_cnn_0.conv_block3.conv.weight f4 [21, 11, 3, 3]
000000 72 15 ea be 43 00 fb be 59 bf e9 be f9 f0 74 be
       -0.45719486 -0.49023637 -0.456538 -0.23920049
000010 4e 67 27 be 84 df d7 be a6 a0 14 3c 19 e9 1e be
       -0.16348001 -0.42162716 0.009071505 -0.15518607
000020 92 92 3b bd 21 7c 15 3f ac 95 b6 3f a0 3c 0b 40
       -0.045794077 0.5839253 1.4264426 2.1755753
000030 98 b4 58 bd ab c3 0d 3f 53 f2 9e 3f bc 5d 9a be
       -0.052906603 0.5537669 1.2417701 -0.3014964
000040 4f a9 e2 3e a1 78 00 40 e6 ee 15 be ea 74 29 3e
       0.44269797 2.0073626 -0.14641914 0.16548505
000050 32 c8 c3 3f 46 f0 e9 be e5 00 a6 be b9 1e 76 3f
       1.529547 -0.45691127 -0.32422557 0.9614063
000060 73 d9 85 be 7e 59 8d bc 7b ec 95 3f 9e 46 82 be
       -0.26142463 -0.017254587 1.1712793 -0.25444502
000070 27 6c b1 3e 32 99 db 3d d7 3b ca be b0 8a 15 be
       0.34652826 0.10722579 -0.3949878 -0.14603686
000080 3e b1 17 be 92 62 b9 bd d6 23 b6 be d2 31 ad 3e
       -0.14813706 -0.09052004 -0.35574216 0.33827072
000090 be c8 5a 3f 62 01 a5 3f cc 83 b9 3e ed fa 86 3e
       0.8546256 1.2891047 0.36233366 0.26363316
0000a0 cb e4 18 3f 51 c3 f9 3d 9a 31 83 be d0 44 73 3e
       0.5972411 0.12195457 -0.2562378 0.23756719
0000b0 6c 65 48 3e 02 7b 44 bb e7 82 f8 3e d5 af cf 3e
       0.1956994 -0.0029980545 0.4853737 0.40563837
0000c0 2c 4e 76 be 79 c3 2e 3e 52 42 23 3e c5 62 9e be
       -0.24053258 0.17066754 0.15943268 -0.3093473
0000d0 3f 16 ac 3d 24 8d fa 3e a9 7f 2a be 4b 30 f7 be
       0.084026806 0.48935807 -0.16650261 -0.48279032
0000e0 ee 98 67 3e d9 cd 46 3c 6c 18 c4 be a9 a4 b3 3e
       0.22616932 0.012134039 -0.38299882 0.35086563
0000f0 2a 4c 17 bd 67 a0 41 bf 1c ad 71 3e 11 c4 76 3e
       -0.03693787 -0.7563538 0.23601192 0.24098231
000100 09 2b 96 3f 3e 90 ce 3e 4d a0 12 3e ad 27 f3 3e
       1.1731883 0.40344423 0.14318962 0.47491208
000110 6e d9 26 3e 27 ca 83 3e 18 24 b0 3e 20 f6 89 3e
       0.1629388 0.25740167 0.34402537 0.2694559
000120 c9 28 8c be d3 d0 a5 bb f6 66 53 3f 90 79 d2 3d
       -0.27374867 -0.005060294 0.8257898 0.102770925
000130 78 51 a2 3c c4 85 45 3f b2 80 91 3e 80 26 9d 3d
       0.019814238 0.77157235 0.284185 0.07673359
000140 c9 3a ec 3e 77 48 0d bf 1b 60 7f bf e9 c4 04 bf
       0.461386 -0.551887 -0.9975602 -0.5186296
000150 8b 71 02 bf 10 55 7d bf ee b5 cb be ed c8 94 bf
       -0.509545 -0.9895792 -0.3978724 -1.1623818
000160 b0 3e 5f bf 65 ff 62 bf 4b c7 fe be 6c bc 67 be
       -0.8720503 -0.8867095 -0.49761423 -0.22630471
000170 ec 28 9a 3f b9 ed f7 be 2e f5 79 be 3f 07 56 3f
       1.2043738 -0.48423555 -0.24409935 0.83604807
000180 29 0f 16 bf 3a 9a a6 be 3a 77 4a 3f be 08 92 3e
       -0.5861688 -0.3253954 0.79088175 0.28522295
000190 3e 35 91 bc ef f1 85 3e e0 17 36 3d 70 f9 84 3e
       -0.017725583 0.26161143 0.044456363 0.25971556
0001a0 b4 aa 9d 3e 2b 31 a8 3e 98 9b 91 3e ab 24 8d be
       0.307943 0.32850012 0.2843902 -0.27567038
0001b0 df 5d 08 3d d5 0d 3a bf 8f 9f ea be e0 8a c1 3c
       0.033292647 -0.72677356 -0.4582486 0.023625791
0001c0 14 43 53 bf f3 54 0b bf a8 77 11 3f 3b 5b c8 be
       -0.8252423 -0.544265 0.56823206 -0.39132103
0001d0 29 46 9f bc 07 b7 32 bf 42 02 06 c0 04 6b 13 bf
       -0.019442635 -0.6981053 -2.0938878 -0.5758517
0001e0 54 d3 42 bf a0 37 e0 bf e8 a8 18 bf 6a 8a 24 bf
       -0.7610371 -1.7516975 -0.5963273 -0.64273703
0001f0 52 a4 df bf b2 76 41 bf c0 97 0f be a0 d8 43 bd
       -1.7472022 -0.7557174 -0.14022732 -0.04781401
000200 90 4d 36 3e 05 69 ba be 7b 90 5a be de 1e 0d 3d
       0.17803025 -0.3640825 -0.21344177 0.034453265
000210 9b 7a 15 bf 26 e9 b0 bd 08 ca 4f 3e 4b 4e c7 be
       -0.58390206 -0.086382195 0.20291913 -0.3892692
000220 6d c0 c0 3e 61 2f 11 3f 53 b6 1d bd a2 c1 92 3e
       0.3764681 0.5671292 -0.038503956 0.28663355
000230 06 1c 6c 3e c6 3e 60 be 14 50 a2 3d 5e 8c 8b 3e
       0.23057565 -0.21898946 0.0792543 0.2725553
000240 12 14 42 be 2e a9 25 be a8 86 ab 3e 69 bd 57 be
       -0.18952969 -0.16177818 0.33501172 -0.21068348
000250 88 be 89 bd 34 4b 74 3e 60 ce 9b bb 6f 4f e4 3e
       -0.06725794 0.23856813 -0.0047548264 0.44591853
000260 57 1b f7 3e 8e 4a a8 be 87 a8 b0 be 2a 61 9f bd
       0.48263046 -0.3286938 -0.34503576 -0.077822044
000270 46 38 fb bd b8 f3 30 3e 38 01 9a bd 93 65 a7 be
       -0.12266593 0.17280471 -0.07519764 -0.32694682
000280 71 03 ff 3d b0 a5 fa be b9 8d f6 bf 2d fc 16 c0
       0.12451828 -0.48954535 -1.9262 -2.3591416
000290 b7 31 fb 3c db c7 13 bf 45 61 ad bf 68 2c ac bc
       0.030663354 -0.5772683 -1.3545309 -0.021017268
0002a0 b1 61 ed bf ed 75 13 c0 fd 3e 21 bd d6 ac 87 be
       -1.8545438 -2.3040726 -0.03936671 -0.2649905
0002b0 66 b7 b6 bf 74 24 37 bf e8 24 da be 00 49 57 bf
       -1.4274719 -0.7154 -0.42606282 -0.84095764
0002c0 38 9a 86 bd 83 0a a2 be db 73 a5 bf 68 89 5b bf
       -0.06572384 -0.31648645 -1.2925981 -0.8575654
0002d0 8b 68 9e 3e 2c 1e 7e 3e eb a6 53 3e 01 93 68 3e
       0.30939135 0.24816197 0.20669143 0.22712328
0002e0 b3 8d 84 bd 7f bc d8 3b c8 c7 ee 3d dd c1 2d bf
       -0.064723395 0.0066142674 0.11659199 -0.67873937
0002f0 41 78 17 be ac b0 81 3e 04 4a 9c 3e 0e 3f b1 be
       -0.14791967 0.25330102 0.3052522 -0.3461842
000300 86 7d 2e 3f 7c cc a3 3e 66 e7 ad bd 98 ff 6c 3f
       0.68160284 0.31991947 -0.084914014 0.92577505
000310 1c da 81 3f 2f b5 34 3f 27 52 54 3f c5 21 c7 3d
       1.0144687 0.70588964 0.82937855 0.09723238
000320 8b ad a0 bf 0f 15 bd 3e 5b 45 e9 bd 4d 9f 6a bf
       -1.2552961 0.3693013 -0.11390182 -0.91649324
000330 e6 dc 79 3f d3 35 62 3f 3f 07 7c bf 36 d2 0c bf
       0.9760269 0.8836338 -0.98448557 -0.55008256
000340 dc d5 25 3e c9 eb 95 3f 82 1f c3 be da 8b f3 bd
       0.16194862 1.1712581 -0.38109976 -0.11891909
000350 00 be 18 3f ed ec fa be fc 64 d9 3e 74 c2 ad 3f
       0.59664917 -0.49008885 0.42459857 1.3574967
000360 4d 21 2f be 0e e8 88 bf ab d7 d8 be 7f 38 a7 3d
       -0.17102547 -1.0695817 -0.42352042 0.08165073
000370 a5 ed 30 bf d7 62 00 be a9 cf fb 3d a5 03 31 be
       -0.69112617 -0.12537704 0.122954674 -0.17286547
000380 eb dc b0 3e 37 00 ac bd ce f9 45 3e 35 53 ce bd
       0.34543547 -0.083984785 0.19333574 -0.10074464
000390 50 06 39 bd 12 2e 29 3e 39 ab 07 bd 8f ae 31 be
       -0.045172036 0.1652148 -0.033122275 -0.17351745
0003a0 a1 6d ff 3d fa 3d 56 3e 26 2c 51 3e c5 c3 71 3e
       0.12472082 0.2092208 0.20426998 0.23609836
0003b0 b2 23 bd bd 05 82 54 3d ad 46 0e bd 1d 34 9f be
       -0.09235324 0.05188181 -0.03473537 -0.31094447
0003c0 0f b3 37 be 52 50 6f be f5 8a 36 bf 1b af e3 3e
       -0.17939399 -0.23370484 -0.7130578 0.44469532
0003d0 62 c9 57 be 6d de f8 be d2 47 9a 3e 16 dd 86 be
       -0.21072915 -0.48607197 0.3013292 -0.2634055
0003e0 cf 68 10 bf ef fa 4e 3e b3 c2 7b 3c 3f 76 01 bf
       -0.56409925 0.20212911 0.015366244 -0.50571054
0003f0 ac 07 8e 3f 4b 7d 8f 3d a5 37 09 c0 9c 7e 52 3f
       1.1096091 0.070063196 -2.1440213 0.8222444

raster_cnn_0.conv_block3.bn.weight f4 [21]
000000 43 9f 60 3f 0e e3 01 40 2b 0e 70 3f 33 bf 74 3f
       0.87743014 2.0294833 0.9377162 0.95604247
000010 8b e1 51 3f 4a 12 88 3f 87 40 b2 3f e3 c4 b9 3f
       0.81984776 1.0630581 1.3925942 1.451321
000020 ce f8 bf 3f 41 96 9d 3f 8d 4f 67 3f 34 f4 a9 3f
       1.4997804 1.2311479 0.9035576 1.327765
000030 76 28 7f 3f 7a 67 50 3f 38 6c ac 3f d8 c5 cc 3f
       0.99671113 0.8140789 1.3470526 1.5997877
000040 6f 7b ab 3f 1c 32 72 3f 89 e7 85 3f 2a 36 81 3f
       1.3397044 0.9460771 1.0461284 1.0094655
000050 2f c4 68 3f
       0.9092435

raster_cnn_0.conv_block3.bn.bias f4 [21]
000000 57 6b 38 3f 03 f9 0f bf 50 1e 70 3f 17 31 0f be
       0.7203879 -0.56239337 0.93796253 -0.1398357
000010 17 15 35 be 2b 6d be be 1b 57 ed 3e 34 9b 88 bf
       -0.17683826 -0.37192664 0.4635552 -1.0672364
000020 03 85 2f 3e b7 b5 1a bf d8 46 72 3f 1e 54 66 3d
       0.17140584 -0.60433525 0.9463935 0.056232564
000030 72 39 0c bd 8e 40 9a bd 8d 94 10 be 86 04 a0 3f
       -0.03423447 -0.07531844 -0.14119168 1.250138
000040 aa 40 97 bd ed b7 88 be 0e 44 42 be 90 5a 01 bd
       -0.073853806 -0.26702824 -0.18971273 -0.031580508
000050 4a 13 26 3f
       0.6487318

raster_cnn_0.conv_block3.bn.running_mean f4 [21]
000000 7f dd d2 40 3d 82 4e c1 2d 4d e5 c0 e5 67 96 bf
       6.589538 -12.906796 -7.165671 -1.1750456
000010 31 a4 ab 40 9e 9b f2 bf 82 c6 82 c0 f1 38 1a c0
       5.363793 -1.8953741 -4.086732 -2.4097254
000020 e1 61 e1 c0 30 1a 14 c0 ec 5e 8e 40 7b e8 66 c0
       -7.043198 -2.3140984 4.449087 -3.6079395
000030 e4 03 30 3d 72 71 07 41 08 bd ff c0 4a 4d 82 c0
       0.04297246 8.465197 -7.991825 -4.0719347
000040 be 4e 70 3e 72 89 a8 c0 ac 6a 50 bf 66 29 8d 3e
       0.23467538 -5.266778 -0.8141277 0.27570647
000050 86 80 00 c0
       -2.0078444

raster_cnn_0.conv_block3.bn.running_var f4 [21]
000000 6d ab 82 42 98 d7 4d 43 16 4f 39 42 e3 d6 9d 42
       65.334816 205.84216 46.327232 78.9197
000010 06 14 87 41 fc 30 fe 40 ff a1 eb 42 7a c3 20 42
       16.884777 7.9434795 117.8164 40.190895
000020 36 14 da 42 78 dd 5a 42 88 14 c8 42 68 bd 37 42
       109.039474 54.716278 100.0401 45.934967
000030 31 87 bc 41 12 8f 42 42 a0 1f 34 42 28 0e 43 43
       23.566011 48.639717 45.030884 195.0553
000040 79 85 4f 42 e1 fd 02 42 d8 d3 08 42 a6 98 63 41
       51.880344 32.74793 34.20688 14.224768
000050 e2 89 1e 42
       39.63465

raster_cnn_0.conv_block4.conv.weight f4 [42, 21, 1, 3]
000000 b8 4e b1 be 56 ae f7 3c 93 9c 02 3f 05 f9 35 3f
       -0.3463037 0.030234497 0.51020163 0.710831
000010 ee 45 ad be 63 7a 04 bf 05 74 1e 3f 9e d1 1e 3f
       -0.33842415 -0.5174925 0.6189578 0.620386
000020 43 d7 0b be 2f 28 bd 3d 13 de 28 bf 25 26 a8 be
       -0.13656335 0.0923618 -0.6596386 -0.32841602
000030 4f e4 83 3d 36 d5 00 be ee f5 11 bf f5 b8 ac bd
       0.06440031 -0.12581334 -0.57015884 -0.08433715
000040 1a d3 0d be 71 c0 09 bd 66 21 5f be 2e 89 19 3e
       -0.1385006 -0.033630792 -0.21790084 0.14993736
000050 8e 0d f0 3e ae 81 c3 be 8c 39 6f be 31 e8 00 be
       0.4688534 -0.38184875 -0.23361796 -0.12588574
000060 28 b7 42 bf 03 88 d4 be 4f 72 a6 3f ff d4 81 3f
       -0.76060724 -0.4151002 1.3003634 1.0143126
000070 24 6d 51 3f 60 93 46 bf 04 5a 9a 3f 05 80 fd bd
       0.8180716 -0.77568626 1.205872 -0.123779334
000080 00 fd 93 bf ed 81 6c bf d1 bb 32 bf a4 b0 be bf
       -1.1561584 -0.9238575 -0.69817835 -1.4897656
000090 2a d1 9b be 51 5e 5a bf a7 7e 2f bf 38 62 65 3e
       -0.30433017 -0.85300165 -0.6855263 0.22400749
0000a0 7e 03 e1 be ae 33 01 bf 32 a3 1a 3f 46 e7 08 3f
       -0.43947977 -0.5046948 0.60405266 0.53477895
0000b0 7d 63 04 be b6 5f 39 bf e7 4e 8b 3e 83 78 fb 3e
       -0.12928577 -0.7241167 0.27208635 0.4911538
0000c0 7a 45 9c bd c5 bb 22 3f 38 36 ce 3e e0 29 3b be
       -0.07630439 0.63567764 0.4027574 -0.18277693
0000d0 7c 08 3a 3e e8 59 23 be 03 0c 62 be 62 47 f3 3d
       0.18167299 -0.15952265 -0.22074895 0.118788496
0000e0 ce 37 0d 3f 47 8d 27 bf 3d 8f 3c 3d b4 46 7b 3e
       0.55163276 -0.6544995 0.04603504 0.2453869
0000f0 b8 e4 fa be db b7 fa 3d ec 4a b8 3e 10 c7 69 be
       -0.49002624 0.12242099 0.3599466 -0.22829843
000100 c9 26 7c bf ff e1 9c 3d 1b 8d e1 bf da a3 dc 3e
       -0.9849668 0.07660293 -1.7621187 0.4309376
000110 db 4f 75 3e 02 4e 3a bf bc 16 34 3f 33 60 30 3f
       0.23956244 -0.7277528 0.7034719 0.6889679
000120 f0 a2 65 be 6c dd 09 3f 51 6d 82 3d 8e 09 2b bf
       -0.22425437 0.5385349 0.06368507 -0.66811454
000130 8f 6e b2 3d f1 62 e3 3d 87 43 02 3f 2b 05 09 3c
       0.08712494 0.11102856 0.5088429 0.008363049
000140 31 ac b9 be a9 41 8c 3f 46 09 68 bf 68 b5 4d bf
       -0.36264184 1.0957538 -0.9063915 -0.8035493
000150 c3 ed ee be 0b f3 b7 bd ff bd 87 3e 8d cd 53 3f
       -0.46665773 -0.08981904 0.26512143 0.8273552
000160 ca 14 8f 3d 65 e4 78 bf 18 50 c5 bd f9 b2 a5 3e
       0.06986387 -0.972235 -0.09634417 0.32363108
000170 a9 07 a3 3e 49 5c ec bd 7a eb f9 be e5 c9 f7 3e
       0.31841782 -0.115410395 -0.48812467 0.4839622
000180 11 13 74 3e fb 1e 54 bf a8 29 a9 be a8 63 7f be
       0.23835398 -0.8285977 -0.33039594 -0.2494036
000190 74 f9 e6 be a6 86 8c be 55 2e af be e0 65 11 bf
       -0.45112193 -0.2744648 -0.34215036 -0.56796074
0001a0 7e 34 bb 3e 7f 09 0d 3f e3 cd dd be 4a 13 50 3e
       0.36563486 0.55092615 -0.43321142 0.20319858
0001b0 0b b9 85 3f 88 7b fe be de 3d 0d bf f2 42 ee be
       1.0447096 -0.49703622 -0.55172527 -0.4653545
0001c0 8f 5c 8a 3d 12 28 9e 3d f0 75 a5 3f af 0a a9 3e
       0.067559354 0.077224866 1.2926617 0.33015963
0001d0 83 e3 16 bf 2d 24 c8 be 34 78 89 be b6 2a c7 3e
       -0.58940905 -0.390901 -0.2684952 0.38899773
0001e0 92 94 0a 3f 54 bf 57 3e f7 dd 5e bf 1f 22 f0 bc
       0.5413295 0.2106908 -0.8705744 -0.029313145
0001f0 93 f0 c2 be 21 20 13 bd ef ff 49 3f 27 bc ab bf
       -0.3807417 -0.035919312 0.7890615 -1.3416795
000200 a5 b9 1c bf c6 bb c0 be d7 41 c7 3d 34 d0 14 3e
       -0.6122077 -0.3764326 0.09729355 0.14532548
000210 39 0c c0 3d ac 89 35 3e 35 04 fd 3d 8f 0f 05 be
       0.09377331 0.17728299 0.12354318 -0.12994216
000220 79 36 aa be 55 bf d2 3d f3 ce 2b bf 15 c7 92 3e
       -0.33244684 0.102904 -0.67112654 0.28667513
000230 71 8a c8 bd 93 89 0f 3e c7 64 db 3c f9 3f 6f be
       -0.097920306 0.14017324 0.026781453 -0.23364247
000240 19 2c c4 3e fa 6a 26 bf 17 07 b1 3d 6c b5 c1 3e
       0.38314894 -0.65006983 0.086439304 0.37833726
000250 a4 f3 e1 3f 6f 73 98 bf 05 a2 ae 3f 14 ea 34 bf
       1.7652478 -1.1910228 1.3643194 -0.70669675
000260 88 22 0f bf 4e b0 57 bf 0f bc b4 bd 7f c6 1e 3f
       -0.55912066 -0.84253395 -0.08824932 0.6202163
000270 a5 08 6a bd 90 49 a6 3e a6 4e fa 3d 4b 3f f9 bd
       -0.05713715 0.32478 0.12222032 -0.12170275
000280 54 31 5b 3f 67 9d af be 57 0e a5 be 38 61 d9 3e
       0.85622144 -0.34299776 -0.32237503 0.42456985
000290 65 35 63 3d 5d d0 2e be 9d 76 8c bf ea 6d 0d be
       0.055470843 -0.17071672 -1.0973698 -0.1381146
0002a0 a1 5d fc be 43 70 e1 bd 89 44 10 be 8a 06 32 bf
       -0.49290183 -0.1100774 -0.14088644 -0.6954123
0002b0 cb d6 16 3f 6d 90 f6 3e 73 98 57 be d1 d1 53 3e
       0.589215 0.48157063 -0.21054249 0.20685507
0002c0 47 e3 d0 3e 97 4d ba be e0 2a 02 bd c4 88 64 3e
       0.407984 -0.3638732 -0.03177917 0.22317797
0002d0 35 c7 55 3f 60 b2 b4 be a0 b2 3d bf 2b e2 42 3f
       0.8350709 -0.3529234 -0.74100685 0.76126355
0002e0 58 8d c6 be 57 59 37 bf 03 b2 06 be 5d 89 3e bf
       -0.38779712 -0.71620697 -0.13153844 -0.7442835
0002f0 7f ef 6a 3f 58 8c 87 3f 74 b6 b2 bf 11 f2 5c bf
       0.9177169 1.0589705 -1.396193 -0.86306864
000300 b4 24 a3 bd a5 89 d1 bd dd 22 06 bc 11 63 6e 3c
       -0.07965985 -0.10231332 -0.008187023 0.014549986
000310 35 fc 85 3d dd 5b b0 be 87 c5 d6 bc 7b 32 3d bf
       0.06542245 -0.34445086 -0.026217235 -0.7390515
000320 31 87 01 3e 7d 57 1d 3f 04 22 8d bf a5 fe 53 bf
       0.12649228 0.6146162 -1.1026006 -0.8281043
000330 16 ad a8 be 88 01 8b bf 46 09 15 3d 9f 06 13 3e
       -0.32944554 -1.0859842 0.036385797 0.14357994
000340 e4 5c 1c 3d 6c 10 89 be 34 e5 1f 3e 0e c0 90 bd
       0.038174525 -0.2677034 0.15614778 -0.070678815
000350 c5 78 2f bf bf 0f 0d 3e 5c 6d c5 be 18 a3 96 be
       -0.68543655 0.13775538 -0.38559997 -0.29421306
000360 59 d2 0d bf 17 81 76 be 87 38 b8 be fc fa a2 bc
       -0.5539909 -0.24072681 -0.35980627 -0.01989507
000370 90 34 bf be 2d 46 3a be c2 39 98 bc 13 a6 57 3f
       -0.3734479 -0.18190832 -0.018582229 0.84237784
000380 fc a0 43 bf 6b e4 05 3f 43 b3 a1 3f b2 82 05 bf
       -0.7641752 0.52301663 1.2632831 -0.5215255
000390 28 b7 04 3f 05 68 2e bf f5 b6 5b bf 9e 63 95 bb
       0.51841974 -0.6812747 -0.85826045 -0.0045589944
0003a0 6e ec 8e bd a7 2b 68 3e 30 46 93 bf af f1 ff 3e
       -0.06978689 0.22672902 -1.1505795 0.49989077
0003b0 a7 ac 1c 3f e6 26 0b 3e 61 14 ee bd 4a 7e 36 bf
       0.61200947 0.13589057 -0.11624981 -0.7128645
0003c0 0b b5 ba 3e 02 9a f8 bd f5 ca 6d bf 75 5a 85 3f
       0.3646625 -0.1213875 -0.9288781 1.041823
0003d0 40 8e f1 3e 76 dd 57 bf bb 2e 69 3e e6 92 6c 3d
       0.4717884 -0.843223 0.22771733 0.05775728
0003e0 ab 73 81 bd be 30 28 3f 1d c5 5e 3e 06 1c 87 3e
       -0.0632089 0.65699375 0.2175488 0.26388568
0003f0 88 b4 16 3d 8a d5 b9 bc ba 50 1b bf d9 3f 59 bd
       0.03679326 -0.022684831 -0.60670054 -0.053039405

raster_cnn_0.conv_block4.bn.weight f4 [42]
000000 5f 25 61 3f 6e e4 5c 3f 6d 8b 1f 3f e0 99 4d 3f
       0.8794765 0.86286056 0.6232212 0.8031292
000010 60 62 60 3f d8 c3 5a 3f 78 99 67 3f 75 91 02 3f
       0.8765011 0.85455084 0.9046855 0.510032
000020 3d 41 32 3f d2 30 68 3f 73 41 5a 3f b3 b2 39 3f
       0.69630796 0.90699494 0.8525612 0.725383
000030 89 7c 8b 3f 60 e5 84 3f fe c7 45 3f 30 ca 10 3f
       1.089738 1.03825 0.7725829 0.56558514
000040 28 e1 93 3f 1f a7 17 3f 42 b5 4e 3f 15 4c 77 3f
       1.1553087 0.5923938 0.8074533 0.96600467
000050 f2 57 11 3f 05 5b 56 3f 17 20 38 3f b9 b5 18 3f
       0.5677482 0.83732635 0.71923965 0.59652287
000060 f7 20 5c 3f d4 ca 27 3f a2 89 33 3f 1f 90 81 3f
       0.859878 0.65543866 0.70131886 1.0122107
000070 af 1e 55 3f 89 a9 40 3f 32 c5 fe 3e 4b 37 26 3f
       0.83249944 0.7525869 0.49759823 0.6492812
000080 d4 ea 0a 3f e4 0c 23 3f 8d 2e 59 3f d9 0f 52 3f
       0.5426457 0.63691545 0.84836656 0.8205543
000090 3d ca 98 3f 69 aa fe 3e 40 23 07 3f 1e b5 26 3f
       1.1936718 0.49739388 0.5278816 0.6512011
0000a0 14 42 00 3f 43 cb 10 3f
       0.5010083 0.5656015

raster_cnn_0.conv_block4.bn.bias f4 [42]
000000 08 9e cb be 37 67 11 bf e4 94 6e be 95 e6 d5 be
       -0.39769006 -0.5679812 -0.23298985 -0.41777483
000010 38 11 8c be 71 05 b3 be a9 12 1e bc 61 e3 0f be
       -0.27356887 -0.3496509 -0.009648004 -0.14051582
000020 d2 74 cb be 45 a9 22 bf b7 37 97 be c9 09 ab be
       -0.39737564 -0.63539535 -0.29534695 -0.33405903
000030 94 21 1c bf 8e 0e 74 be 6b c8 8a be 49 85 a5 be
       -0.60988736 -0.23833677 -0.27106032 -0.3232825
000040 94 4c c4 be 0d 6d 8d be a5 ce 1a bf 89 ae 61 bf
       -0.38339674 -0.27622262 -0.60471565 -0.88156945
000050 81 d5 f0 be 95 68 40 bf 03 42 90 be 40 55 a2 be
       -0.4703789 -0.7515958 -0.28175363 -0.31705666
000060 10 56 52 be ae 51 44 be c5 2e c5 be f1 ab e9 be
       -0.20540643 -0.19171783 -0.38512245 -0.45638993
000070 ea 05 02 bf f2 fc 19 bf 5d fb ad bc 85 dc 3c be
       -0.50790274 -0.6015159 -0.021238023 -0.18443497
000080 fb 84 85 be 8b 19 e5 3c d0 fa 4c be b5 70 5b be
       -0.2607802 0.027966281 -0.20017552 -0.21429713
000090 d0 d4 47 bf dc fc 25 be 27 95 f3 bd 21 21 c2 be
       -0.780591 -0.1620974 -0.11893683 -0.379159
0000a0 d9 e6 65 3e 99 ad 6d be
       0.22451343 -0.23210754

raster_cnn_0.conv_block4.bn.running_mean f4 [42]
000000 8e 0e ea be 6c e4 34 c0 2f 0a 08 bf d8 0e 28 c0
       -0.4571423 -2.8264418 -0.5314054 -2.625906
000010 a8 e3 54 c0 35 15 86 3e c0 0e 11 c1 d4 ce 70 3f
       -3.326395 0.26188055 -9.066101 0.94065595
000020 de 92 90 40 ba 29 00 40 b1 34 5b bf 67 7e a3 c0
       4.517928 2.0025468 -0.85627276 -5.10918
000030 e9 8f 77 c0 e8 34 00 c0 21 91 52 c0 24 ac b6 3f
       -3.8681586 -2.0032291 -3.290108 1.4271283
000040 49 db 58 c0 6d 9e 00 c1 3a 4d 75 c0 84 85 34 c0
       -3.388384 -8.038678 -3.8328385 -2.8206491
000050 58 fe 33 c0 d4 4c 90 be 42 d3 bd bf 3c f1 16 c1
       -2.812399 -0.28183615 -1.4830096 -9.433895
000060 ac 3f bf bf 7f 2d 96 bf 43 bf d8 be 47 f9 82 be
       -1.4941306 -1.1732634 -0.4233342 -0.2558081
000070 e4 ed 3c 40 fa 93 ed 3e 65 85 18 bf ef 95 52 c0
       2.9520197 0.4640196 -0.59578544 -3.2904012
000080 25 32 8d 40 19 a4 b5 c0 3c e6 13 bf 1b b1 b9 c0
       4.412371 -5.6762815 -0.57773185 -5.8028693
000090 1a 23 ca be ca d8 54 3d 5c 69 05 be 28 a0 88 c0
       -0.39479905 0.05196456 -0.13028473 -4.2695503
0000a0 93 e2 30 c1 19 29 28 c0
       -11.055316 -2.6275084

raster_cnn_0.conv_block4.bn.running_var f4 [42]
000000 c4 76 78 41 16 50 39 41 83 e1 e3 40 c5 4c 72 41
       15.5289955 11.582052 7.1212783 15.143743
000010 02 39 86 41 bd c0 a1 41 21 0c 29 42 75 7b 3e 41
       16.777836 20.21911 42.261845 11.905141
000020 b3 ef 8d 41 28 79 52 41 c2 93 d7 40 33 19 90 41
       17.74204 13.154579 6.736787 18.012304
000030 e1 a5 93 41 5d 4d 22 42 af 3a 14 42 01 6c 35 41
       18.455996 40.57555 37.05731 11.338868
000040 5a 18 17 42 4f 26 08 41 b3 5f 86 41 d1 b1 27 41
       37.77378 8.509353 16.796728 10.480912
000050 f0 67 b7 41 db 96 61 41 74 cc 96 41 14 ca 07 41
       22.92575 14.09933 18.84983 8.4868355
000060 29 60 b5 41 c6 46 37 41 cd a4 8d 41 49 a3 60 41
       22.671953 11.454779 17.70547 14.039865
000070 56 ce 59 41 d9 89 a4 41 5a 98 0d 41 5b 05 dc 41
       13.612875 20.567308 8.849695 27.502615
000080 68 a5 b7 41 ae 71 8e 41 26 23 9e 41 d7 2a 1e 42
       22.955765 17.805508 19.767162 39.541836
000090 44 13 91 41 36 e8 e6 40 27 c2 8a 41 cc 8f 3f 41
       18.134407 7.215846 17.3448 11.972607
0000a0 9e 4c b2 41 51 4a 71 41
       22.28741 15.080644

raster_cnn_1.conv_block1.conv.weight f4 [6, 3, 3, 3]
000000 f5 59 bd be 5d 41 8e bf f8 14 31 bf e6 c8 84 3e
       -0.36982694 -1.1113697 -0.6917262 0.25934523
000010 1f fc 2a be c4 69 b8 3d f6 ff 0f 3f 82 30 66 3f
       -0.16697739 0.09004548 0.5624994 0.8991777
000020 1a d8 15 3f dd ef 33 be 93 3a 92 bf e5 b6 36 bf
       0.5853287 -0.1757197 -1.1424125 -0.71372825
000030 92 80 f4 3d 39 74 28 be 4f b7 26 3e 0b a0 12 3f
       0.11938585 -0.16450585 0.16280864 0.57275456
000040 e0 bb 39 3f cd 7d f5 3e a2 dc 96 be 54 38 56 bf
       0.725523 0.4794754 -0.29465204 -0.836797
000050 fc 00 84 be e4 9c 93 3d de 0b 7d bd 93 6d 5e 3d
       -0.25782 0.07207659 -0.061778896 0.054303717
000060 1e 8d bf 3e a3 d3 38 3f f1 d6 7f 3e 64 69 2c bf
       0.3741235 0.7219793 0.24984337 -0.67348313
000070 e6 78 99 3e 7a 04 b2 3e de 71 61 bf 9e 36 8f 3d
       0.2997505 0.3476904 -0.8806437 0.06992839
000080 aa 78 7f 3f 97 c6 15 bf d2 4f e9 be d6 41 68 3f
       0.99793494 -0.5850615 -0.4556871 0.9072546
000090 48 af ff be d6 e4 03 3f 63 38 5b 3e ae ee fd be
       -0.49938416 0.5152105 0.21408229 -0.4959616
0000a0 ab a6 cc bc 81 44 49 3f 51 4a 33 bf b3 a5 21 bf
       -0.024981817 0.78620154 -0.7003527 -0.6314346
0000b0 b2 ff 56 3f 67 d9 b7 be eb 0a bf 3e 94 98 04 3c
       0.8398391 -0.35908052 0.37313017 0.008093018
0000c0 e2 26 1f bf 3b 50 7e 3e 89 f3 06 3f 16 3b 14 bf
       -0.62168705 0.24835293 0.52715355 -0.5790266
0000d0 71 d2 be be db f7 4f 3f b1 3f 1c be df f6 4c 3e
       -0.3726993 0.8123757 -0.15258671 0.20016049
0000e0 fc 70 02 3d 1e 22 12 3f 73 e8 52 3f 01 e2 38 3f
       0.03184603 0.5708331 0.8238594 0.72219855
0000f0 33 b1 04 bf 16 85 79 bf 1d f4 20 bf 6e d9 60 bc
       -0.51832885 -0.974687 -0.6287249 -0.013723714
000100 eb 66 9c 3e 45 00 5b be c5 f5 5b 3e 83 d0 78 3f
       0.3054727 -0.21386822 0.21480472 0.97193164
000110 d7 3c 52 3f e6 77 cf be 63 f7 b0 bf c0 56 0d bf
       0.82124084 -0.40521163 -1.3825496 -0.55210495
000120 46 af 45 bd 7c c2 8e 3e 14 4d 72 3c 29 b6 f0 3d
       -0.048262857 0.27882755 0.014788885 0.11753494
000130 e4 32 b6 3e 8e 00 e1 3e d0 7b b4 bd ef 18 55 bf
       0.355857 0.43945736 -0.08812678 -0.8324117
000140 fb e4 63 be bc 3c 02 bf df d0 11 bf c5 13 dc 3e
       -0.22255318 -0.50873923 -0.56959337 0.42983833
000150 1f d2 86 bf bd 6c 64 3e 75 aa 15 3f 05 6f 01 3c
       -1.0532874 0.22307105 0.5846322 0.007900004
000160 84 56 80 3f e9 c7 d6 bd 22 cf 07 bf 17 d9 45 bf
       1.0026402 -0.104873486 -0.53050435 -0.7728438
000170 95 df 0f 3e 3c d5 67 bf fc e3 81 3e aa 51 e3 3e
       0.14050134 -0.90559745 0.2536925 0.44398242
000180 81 51 03 3f d2 77 89 3f 71 39 84 be 78 43 29 be
       0.5129624 1.0739691 -0.25825074 -0.16529644
000190 26 e2 0d bf 53 85 98 3e ae 35 2f bf 15 be 8e 3e
       -0.554232 0.29789218 -0.68441284 0.27879396
0001a0 a4 0d e4 3e 7d 10 91 bd 2e 7b 2e 3f 79 e1 62 be
       0.44541657 -0.07083223 0.6815671 -0.22156323
0001b0 23 47 21 be e3 2e 2d 3f 64 eb 1c be 7f 3c 81 3f
       -0.15749793 0.6764967 -0.1532417 1.0096587
0001c0 88 7a e5 3e 54 45 80 bf 67 75 b9 bd ad d4 81 bf
       0.44820046 -1.0021157 -0.09055596 -1.0143028
0001d0 20 fc 9d 3e 6b f4 98 bd 69 23 18 3f a8 7b 89 bd
       0.3085642 -0.07468494 0.5942903 -0.06713039
0001e0 29 39 89 3f f5 58 1c 3f ac 5b 77 bf eb fb e6 bc
       1.0720569 0.6107324 -0.96624255 -0.028196296
0001f0 af 49 85 bf 45 64 26 3e 8d 13 86 be 4e 6d a9 3e
       -1.0413111 0.16249187 -0.2618679 0.33091205
000200 5d cd e1 3d 9d 14 c0 3e 77 76 a8 3e 85 e1 f2 be
       0.11025498 0.37515727 0.32902882 -0.47437683
000210 9d 34 bc 3c b7 a5 15 bf d0 b9 0b 3e 9e 61 6d 3e
       0.022974307 -0.58455986 0.136451 0.23181769
000220 62 49 59 3f 17 aa 53 3f 96 04 d1 be 3d 04 98 bf
       0.848776 0.8268141 -0.4082381 -1.1876293
000230 30 26 04 bf 4d 61 0e 3f 87 77 87 be e4 cc 35 bd
       -0.5162077 0.5561722 -0.2645838 -0.044384852
000240 3d b2 4f bd b7 c3 69 3f 68 47 35 3f 94 82 a3 be
       -0.05070709 0.9131426 0.7081208 -0.3193556
000250 99 27 a8 bf 90 8d 3e bf 25 1e 59 3f 72 f8 d1 bd
       -1.3137084 -0.7443476 0.8481162 -0.10252465
000260 35 cd fc 3c 24 b2 93 bc ec 0f a9 3e 82 70 ae 3e
       0.03085957 -0.01802928 0.3301996 0.34070212
000270 10 18 04 be 33 85 fa be ca dd c5 be b1 c2 97 3e
       -0.12899804 -0.48929748 -0.38645774 0.29640725
000280 47 e3 eb 3b 93 30 29 3d
       0.0071987244 0.04130609

raster_cnn_1.conv_block1.bn.weight f4 [6]
000000 20 5e c1 3f d1 15 45 3f 96 dc 89 3f 74 32 53 3f
       1.510685 0.76986414 1.0770442 0.8249886
000010 62 b1 49 3f e1 67 a0 3f
       0.7878629 1.2531701

raster_cnn_1.conv_block1.bn.bias f4 [6]
000000 2a 5b 5a 3f 77 03 9b 3e 2d a5 f2 3e 02 8e ad 3e
       0.85295355 0.3027608 0.47391644 0.33897406
000010 28 3d 79 3f 2b b7 4b 3f
       0.9735894 0.7957637

raster_cnn_1.conv_block1.bn.running_mean f4 [6]
000000 d3 df a6 3e 79 31 8a bf 6f 0d 58 40 29 ec ad bd
       0.3259264 -1.0796348 3.37582 -0.084923096
000010 d3 e2 65 c0 eb 80 f8 3e
       -3.5919693 0.48535857

raster_cnn_1.conv_block1.bn.running_var f4 [6]
000000 38 f4 71 46 ce d6 6f 46 68 5d e0 45 7d 25 f9 45
       15485.055 15349.701 7179.676 7972.686
000010 35 cc 9b 45 96 4a 86 45
       4985.526 4297.323

raster_cnn_1.conv_block2.conv.weight f4 [11, 6, 1, 3]
000000 99 32 97 be af 98 8e bf 44 cb 7b 3e a5 48 5b bf
       -0.2953079 -1.1140345 0.24589258 -0.8565772
000010 0d 53 ea bf 6a 7b 9c 3c bd 91 69 3e cf 44 0c 3f
       -1.8306595 0.019101817 0.22809501 0.54792494
000020 0c 4c 49 3e ee bb 32 3e 0f ac d4 bf 1c 18 19 bf
       0.19657916 0.17454502 -1.6615008 -0.59802413
000030 9c 5a 91 3e 2b f0 f1 3d fa 06 d0 be 0d 52 11 3d
       0.28389442 0.118133865 -0.40630323 0.03547864
000040 7f 72 fc 3e 2d b9 0b 3e d4 40 c1 39 28 4b c4 bb
       0.49306104 0.13644858 0.0003686013 -0.0059904046
000050 ed a3 43 be e1 0e bc 3e a5 46 ea be d8 0c 1d 3b
       -0.19105501 0.36730102 -0.45757023 0.0023963954
000060 23 7b 90 3d f7 93 e1 be 50 fe 26 3e e3 37 7a be
       0.070547365 -0.440582 0.1630795 -0.24435382
000070 ef 71 a3 bc 07 32 f7 bd 55 dc bf 3e 1a 46 6a bf
       -0.019951789 -0.12070089 0.37472787 -0.91513216
000080 64 0c a8 3e 3b 48 0b bf 13 81 e2 3f 29 4d 6c bf
       0.32821953 -0.5440709 1.769564 -0.9230524
000090 94 49 7a be bb 39 11 3e aa f4 01 be 12 ff 11 3d
       -0.2444213 0.14182179 -0.12690988 0.035643645
0000a0 f4 20 48 3d d9 b9 64 bd 0d f2 f1 bd 18 c3 57 be
       0.04885955 -0.0558413 -0.11813746 -0.21070516
0000b0 db 92 86 3e c0 2c 52 bf 05 1e c2 3f 16 83 e9 be
       0.26283917 -0.82099533 1.5165411 -0.45607823
0000c0 48 5a 66 3f 82 5d bb bf b7 eb f9 3e 2d 6f ae 3e
       0.8998151 -1.4637911 0.4881265 0.34069195
0000d0 93 c4 e7 be 80 85 b1 3d a0 35 2c be 77 cb 81 3f
       -0.45267162 0.08668041 -0.16817331 1.0140218
0000e0 d4 a5 67 bf 02 ad e7 be ae 25 25 bc ea b0 6c 3e
       -0.9048741 -0.45249182 -0.010079784 0.23114362
0000f0 4a ab 57 be 13 37 0b be 4a 9e 1a 3f 55 90 b9 bc
       -0.21061435 -0.13595228 0.6039778 -0.02265183
000100 d3 c8 6b bf c0 17 47 bf 3d 8f 44 3d c4 90 2e bf
       -0.9210331 -0.77770615 0.047988165 -0.68189645
000110 1a ec 8c bf ed b1 e2 be 81 4e d5 3e 72 68 1d 3e
       -1.1009552 -0.44276372 0.41661456 0.15371874
000120 9d 04 51 3e 8a d9 0c 3d ff 39 d0 3e c9 0f 9d 3e
       0.20411916 0.03438715 0.40669248 0.30676106
000130 33 de 08 be 10 74 61 c0 9a fb 1e 3e a8 31 92 be
       -0.13366012 -3.522709 0.15525666 -0.2855351
000140 31 4f 8c be 36 14 0d 3e 2f 7b 38 be df 20 c6 bf
       -0.27404168 0.13777241 -0.18015741 -1.5478781
000150 8d 9c 90 3e c5 a1 08 3f 00 c1 7e be ef ae 98 3d
       0.2824444 0.5337184 -0.24878311 0.07455241
000160 52 1c 3a be 87 e3 56 be cf 0c 8b 3f 6c 33 a3 bf
       -0.18174866 -0.20985232 1.0863284 -1.2750068
000170 71 99 98 3d 43 5c 8e be ab 02 84 be 93 00 5a 3e
       0.074511416 -0.27804765 -0.25783285 0.21289282
000180 9f af 65 bf b8 60 84 3f f4 7d 0e be 44 cf be 3e
       -0.897211 1.0342016 -0.13915235 0.37267506
000190 da 78 80 bd 12 27 91 be bd da 73 be 01 44 1d 3e
       -0.062730506 -0.2835012 -0.23813911 0.15357973
0001a0 b1 4f 92 3c fd 66 10 bf 76 4a 21 3f d7 16 07 be
       0.017860265 -0.5640715 0.63004243 -0.13192306
0001b0 91 ff 9c 3d 60 ef 3d bf 0e f5 00 3f c8 79 4e be
       0.07665933 -0.7419338 0.50373924 -0.20163643
0001c0 23 be b1 3f 11 bb 16 bf c3 23 af be a9 6e 87 3f
       1.388615 -0.5887919 -0.34206972 1.0580646
0001d0 53 b0 96 be 18 57 50 bd db 86 62 bd d4 17 6d be
       -0.294314 -0.05086431 -0.05530439 -0.23153621
0001e0 23 7d b7 3d dc f0 2e bf 53 5d 23 3f 5e b9 39 bb
       0.08959415 -0.6833627 0.63814276 -0.0028339247
0001f0 05 90 51 3e 3f dc 54 bf 5b 0b b1 be 3d 6e d5 3e
       0.20465095 -0.8314857 -0.34578976 0.41685668
000200 1a fb f1 3e a9 93 3d 3e 77 18 27 bf 62 7c 6b bf
       0.47261888 0.18513359 -0.65271705 -0.9198667
000210 6e d5 c0 be 14 70 4f bf 89 49 cf be 62 32 04 be
       -0.37662834 -0.8103039 -0.4048579 -0.12909845
000220 fb e2 88 3e 7b 01 e3 3e 2f ea 85 bd 24 60 a8 be
       0.26735672 0.44337067 -0.065388076 -0.3288585
000230 5d f4 84 be 6b e3 f3 3d d5 82 99 3f 62 af 81 3f
       -0.25967684 0.11908611 1.1993052 1.0131648
000240 0b e5 39 3e 08 f6 e1 bf dd 7c 10 c0 75 bf 95 3e
       0.18153779 -1.7653208 -2.257621 0.29247633
000250 97 ef 18 3e b1 25 35 bb 62 a2 76 3e 6e 5f 42 3e
       0.14935146 -0.0027640874 0.24085382 0.18981716
000260 91 e1 17 3f d7 1e bc 3e 34 09 2b bf a7 da 7b bf
       0.5932856 0.3674228 -0.6681092 -0.9838051
000270 01 ea d3 3e ad 05 fa be 8a 77 99 be bb dc 32 3d
       0.41389468 -0.48832455 -0.29974014 0.043667536
000280 38 0b 8d be ce 86 54 be f9 7d 13 3f 6e 2c 68 3f
       -0.27547622 -0.20754549 0.57614094 0.90692794
000290 bf a0 61 be a6 ac 3f 3c 91 b1 05 3f 51 a0 22 be
       -0.22033976 0.011698877 0.5222407 -0.15881468
0002a0 b4 7a c0 be 57 22 b9 bf ec 29 cf be 20 27 f3 be
       -0.37593615 -1.4463605 -0.4046167 -0.47490788
0002b0 5b a7 12 3f 39 8e bd ba 33 e5 0d bf 13 83 81 be
       0.57286614 -0.0014461941 -0.55427855 -0.25295314
0002c0 2a 97 46 bf b3 b6 1a bf 57 ae 35 bf d4 bf 83 be
       -0.7757441 -0.60435027 -0.70969146 -0.2573229
0002d0 68 74 87 be 5d 0a 90 3e 0f 92 82 bd 13 42 51 3e
       -0.26455998 0.28132907 -0.06375515 0.20435362
0002e0 60 ab 23 bf a0 79 b9 3c ea 4e 5f bf a6 eb 4c 3f
       -0.6393337 0.022641003 -0.8722979 0.8004707
0002f0 14 99 53 3f 15 9d 36 be cf 9d 68 be 56 8c 52 3e
       0.82655454 -0.1783336 -0.22716449 0.20561346
000300 45 6a aa 3b 8f 83 5c bf e0 27 8c 3f f3 3a 04 3e
       0.0052006566 -0.8613824 1.0949669 0.12913112
000310 ca af 36 bf e7 36 26 bf
       -0.7136198 -0.64927524

raster_cnn_1.conv_block2.bn.weight f4 [11]
000000 8a 80 e4 3f cb c4 80 3f 6a 7d 88 3f 75 dc 82 3f
       1.7851727 1.0060056 1.0663273 1.0223528
000010 2e cc be 3f 38 ca a0 3f 90 6a 75 3f 4c 4a 7f 3f
       1.4906061 1.2561712 0.95865726 0.99722743
000020 e4 fe f6 3f 1a f5 b5 3f 33 8a 8b 3f
       1.9296536 1.4215424 1.090155

raster_cnn_1.conv_block2.bn.bias f4 [11]
000000 27 18 01 bf 2f 86 e5 bd 45 75 39 bd fa 08 b1 be
       -0.5042748 -0.11207234 -0.045277853 -0.3457716
000010 d9 a4 53 3e c9 e1 f6 bd 0e fa 2b bd 81 a9 11 3d
       0.20668353 -0.12054784 -0.041986518 0.035562042
000020 3c 72 24 3f ce 2c 27 be 50 1a 9d be
       0.6423681 -0.16325685 -0.30684137

raster_cnn_1.conv_block2.bn.running_mean f4 [11]
000000 07 07 26 c0 3f fd 0f bf 34 cb 93 be 5d 31 39 c0
       -2.594179 -0.562458 -0.2886597 -2.893638
000010 2a 55 f7 bf 83 a5 e1 be b8 d9 ce be ed 78 68 3f
       -1.9322865 -0.44071588 -0.4040048 0.9080952
000020 48 25 a7 c0 c8 fd 5c c0 e7 20 74 bf
       -5.223301 -3.4529896 -0.95362705

raster_cnn_1.conv_block2.bn.running_var f4 [11]
000000 b4 3d 48 41 45 25 fa 3f dc 50 54 40 2b 13 33 40
       12.515064 1.9542624 3.3174353 2.798045
000010 cd 9e 1b 41 eb 89 4c 40 be a4 57 40 ca 4e cb 40
       9.72627 3.1959178 3.36943 6.353368
000020 1e 99 d0 41 61 d8 66 41 c3 27 30 40
       26.074764 14.427827 2.7524269

raster_cnn_1.conv_block3.conv.weight f4 [21, 11, 3, 3]
000000 26 1b 43 bf 63 d9 3f bf e3 7e 12 be f2 90 11 be
       -0.762133 -0.7494108 -0.14306216 -0.14215448
000010 dc 7e da be d0 58 01 3e 03 0a 32 bf 5c 44 a3 bf
       -0.4267491 0.12631536 -0.69546527 -1.2755237
000020 a6 60 75 bf 0c 9a 0b 3f ce 6a 04 3f 76 ac 25 3f
       -0.958506 0.5453193 0.5172547 0.6471628
000030 6c 59 a0 3d 71 75 11 3e 7e 4c 12 3f 37 ca 65 3e
       0.07829556 0.14204957 0.5714797 0.2244042
000040 05 08 75 3e 19 68 14 3f 54 3e 3c bf 38 d6 9f bf
       0.2392884 0.5797134 -0.73532605 -1.2487249
000050 5b 45 82 bf 75 c9 f8 be 2c e2 48 bf 12 79 24 bf
       -1.0177416 -0.485912 -0.7847011 -0.6424724
000060 ac 79 83 bf 3b 62 cd bf fc d1 94 bf a9 a9 87 3e
       -1.0271506 -1.6045603 -1.1626582 0.26496628
000070 f6 54 88 3f 68 46 1d 3f 9c 4f 55 be b8 a1 db 3d
       1.0650928 0.61435556 -0.2083115 0.10724205
000080 bb fd 50 bd 6d b8 28 3e 4a 1c fe 3e 30 b8 1b 3f
       -0.051023226 0.16476603 0.49630958 0.6082792
000090 38 c2 ec 3e ed 42 07 3f 64 f6 8e 3e ae c3 c0 3e
       0.46241927 0.52836496 0.27922356 0.37649292
0000a0 7a 47 53 3d 51 19 14 be 45 29 00 3f 55 10 3e 3f
       0.051581837 -0.14462782 0.5006297 0.7424367
0000b0 5c 8c 19 3e 3b a8 0c bd 6d f1 de 3e ce 20 5f 3e
       0.14994949 -0.034340125 0.43543568 0.21789858
0000c0 6e 16 a3 be 8c 9a 04 3e 0b ad 17 be dc 64 75 be
       -0.3185305 0.1294958 -0.14812104 -0.23964256
0000d0 4c ab e1 3d 87 f3 c6 3d a4 fe 16 3f fa b6 82 3f
       0.110190004 0.09714418 0.589823 1.021209
0000e0 3f 4d 51 3f f0 44 b5 bd da dd af 3e a5 c3 19 3f
       0.81758493 -0.088510394 0.34348947 0.60064155
0000f0 90 ac d5 3e 8f 8a 54 3f 52 27 0f 3f e7 9c e2 be
       0.41733217 0.83023924 0.55919373 -0.44260332
000100 49 36 f9 be 9e fb c0 3e f6 1f 6a be 0e fb b4 be
       -0.4867423 0.3769197 -0.22863755 -0.3534779
000110 30 3b cd 3e 39 33 66 be 82 7b 0c bf 1e e0 7a 3b
       0.4008422 -0.22480477 -0.5487596 0.0038280557
000120 21 e2 ae 3e 37 7b 48 3e 51 b3 93 bc 2d 4f 94 3d
       0.34156898 0.19578253 -0.01802984 0.07241664
000130 b8 7b 90 bd e0 e5 b0 3e 80 bb 27 be 71 bf 02 bf
       -0.070548475 0.3455038 -0.1638012 -0.51073366
000140 c6 1c aa 3e be af a7 bf 42 ef 4d bf 68 27 f9 3e
       0.33225077 -1.3100507 -0.80443203 0.48662877
000150 56 14 4b be 53 97 a0 be fd ec e4 be 4d 9f 03 bf
       -0.19831976 -0.3136545 -0.44712058 -0.5141495
000160 43 88 17 bf 6b 90 3b bf 0d b6 2d bf c7 9f 33 bf
       -0.59192294 -0.7326724 -0.6785591 -0.70165676
000170 4b 14 e9 3d 19 d2 09 bf e8 ab 81 bf 45 ac 85 3e
       0.11380824 -0.5383621 -1.0130587 0.26107994
000180 6c d2 42 bf 41 62 b1 bf f1 74 08 be 72 f0 9a 3f
       -0.7610233 -1.385811 -0.1332586 1.2104628
000190 4c 45 99 3e 03 ab 89 bf 94 87 2a 3f 73 18 f9 3e
       0.29935682 -1.0755314 0.66613126 0.48651466
0001a0 ee 6e b0 bf de d7 97 3f 59 a5 bc 3e 8b 6b da bf
       -1.3783853 1.1862752 0.368449 -1.706407
0001b0 b8 a6 d0 bd 44 a4 83 be 79 37 bb 3e 94 7b aa be
       -0.10188049 -0.25711262 0.3656576 -0.33297408
0001c0 39 5a de be d3 d4 0b be 81 e6 13 be 12 bb dd 3b
       -0.4342821 -0.13655405 -0.14443399 0.0067666853
0001d0 ac 47 f9 be 93 42 f4 3e 76 31 c3 3d 58 29 52 be
       -0.48687494 0.47707042 0.09530918 -0.20523584
0001e0 ff 16 77 3e 96 63 52 3d 3c 90 a7 be 3d f2 e4 bd
       0.24129866 0.051364504 -0.3272723 -0.11179016
0001f0 ce 53 2c be 15 30 e1 3b 38 6d 93 3e c5 ce 77 3f
       -0.16828844 0.006872187 0.28794265 0.9679988
000200 77 5f 1c 3f bb a0 82 3f f9 12 44 3f 0a 88 49 3e
       0.6108317 1.0205301 0.7659145 0.19680801
000210 8c c8 02 3f 32 7b 4a 3d bb a0 25 3e 2a 73 a0 3e
       0.5108726 0.049433894 0.16174595 0.31337863
000220 27 b8 71 bf 59 d9 89 bf 6f 1a 60 3e 4e 22 5f bf
       -0.9442162 -1.0769454 0.21885084 -0.8716172
000230 36 9a 46 bf d4 bf d1 3e 29 64 92 bf c6 9c 82 bf
       -0.7757906 0.40966666 -1.1436816 -1.0204093
000240 4d 51 da ba 5f be e5 3d aa ff fe bd 5d 48 3a 3c
       -0.001665631 0.11217951 -0.12451108 0.011369792
000250 19 4c 86 3e a8 c2 e8 bd b5 10 fc 3d 4f 6f 81 be
       0.26229933 -0.11365253 0.12307874 -0.25280234
000260 2e c5 c6 be 68 e4 31 bf 75 6c 3b be 3e 93 23 3e
       -0.3882231 -0.69489145 -0.18303092 0.15974137
000270 a3 03 ba be 49 9b 43 bd 9c 89 fe 3e 60 e8 11 bf
       -0.363309 -0.047755513 0.49714363 -0.569952
000280 99 7d 39 be c3 c9 85 be ca 85 d9 3e 4d 02 5a bf
       -0.18114318 -0.26130494 0.42484885 -0.8515976
000290 e7 ce 23 bf 41 fc 4c 3e 11 04 8d bf 0e 21 1c bf
       -0.6398758 0.20018102 -1.1016866 -0.6098794
0002a0 93 77 0f 3e 72 42 94 bf 63 21 10 bf c8 2b e8 3e
       0.14010458 -1.1582778 -0.56300944 0.45345902
0002b0 9e 28 9a be e0 8a 0b bf 69 3b 41 3e e2 cf 0d bf
       -0.30109113 -0.5450878 0.1887032 -0.5539533
0002c0 b7 c6 62 bd db 73 a4 3d b8 70 6c bf fe 5f 0f 3d
       -0.05536529 0.0802991 -0.92359495 0.035003655
0002d0 dc 83 58 bf 9d a4 81 3f a0 37 2f 3f 53 dc 8a be
       -0.845762 1.0128361 0.6844425 -0.2712122
0002e0 a7 cc 0f 3f 29 c8 04 3f 67 66 d1 be e9 c9 89 3f
       0.5617165 0.5186792 -0.4089844 1.0764743
0002f0 03 91 96 3f 53 e6 eb be d5 d0 a1 bd 04 a7 86 3e
       1.1763004 -0.4607416 -0.0790116 0.26299298
000300 d4 79 df be f5 a6 ac be e1 b6 e5 3d 31 66 97 bd
       -0.43647635 -0.33721128 0.11216522 -0.07392538
000310 c1 c9 35 bf 84 5d d9 bb 28 30 95 3b 55 0d 9d 3e
       -0.7101098 -0.0066334624 0.00455286 0.30674234
000320 4d ae f7 3e 0f 19 76 be 1c 3b 31 bf 77 a2 42 bd
       0.48375168 -0.24032997 -0.6923082 -0.04751822
000330 b5 e2 c7 bd 67 76 15 bf ee bd 89 be cd d4 3b 3d
       -0.09760038 -0.5838379 -0.26902717 0.04585724
000340 a6 c6 a0 bf 94 5d ad bd ae 64 90 3e 38 f9 8d bf
       -1.2560623 -0.08465114 0.28201813 -1.109168
000350 01 65 7e bf 7f 29 73 3e 08 00 48 bf 4f 03 a1 bf
       -0.9937287 0.23746298 -0.7812505 -1.2579135
000360 bf 7c 6e 3c 3e 44 a4 be da a2 d0 be 68 ea 07 be
       0.014556109 -0.32083315 -0.40749246 -0.13273013
000370 1c 7d ca be e9 b4 a9 be 2f fd be be 11 31 01 bf
       -0.39548576 -0.33145836 -0.3730254 -0.50465494
000380 95 f8 02 bf b6 42 aa bf a6 81 de 3d 4a 02 97 3f
       -0.51160556 -1.3301609 0.10864572 1.1797574
000390 28 e6 db be e1 63 d4 3c 7e 50 77 3f 98 f7 e2 be
       -0.42949033 0.025926532 0.96607196 -0.44329524
0003a0 f8 d7 9c be 97 f7 19 3f db 51 70 3f e7 27 b5 3e
       -0.3063352 0.6014342 0.938749 0.35382006
0003b0 8a 93 4a be f9 18 eb 3e b3 12 b9 3e 4e 24 14 bd
       -0.19782844 0.4591749 0.3614708 -0.036167435
0003c0 e7 01 a6 3e 4c 0c 2d 3f 31 4a 43 3e dd f6 d9 3d
       0.32423326 0.6759689 0.1907127 0.106427886
0003d0 e7 14 13 3e 89 85 b1 3e 85 af 15 3e 7b 5a 13 3c
       0.14363442 0.34672192 0.14617737 0.00899374
0003e0 d4 5e b8 3e 7e f7 0e 3e 10 34 89 bd 21 94 07 3e
       0.36009848 0.13961598 -0.06699383 0.132401
0003f0 e7 3e 40 bd 1c 2d 13 be 32 53 08 3f cb da a2 3d
       -0.04693499 -0.14372677 0.53251946 0.07951888
