checkpoint/rascanet_105x120.pth.tar (torch, 439614 bytes, 161 tensors)

raster_cnn_0.conv_block1.conv.weight f4 [5, 3, 3, 3]
0.29192618 0.8335339 -0.3114149 0.20974192 0.7159932 -0.011942052 -0.14991862 -0.40216413
-0.16146001 -0.7153971 -1.3740492 0.14936964 -0.64720285 -1.0843469 -0.14741485 0.29722315
0.33048785 0.3526035 0.42760703 0.4772411 0.19725375 0.4134044 0.30304202 0.12623353
-0.16799434 0.16917162 -0.20636578 -0.4630682 -1.0041122 -0.7822189 -0.4737445 -0.65334547
-0.6554622 -0.033301502 -0.2314783 -0.27478477 0.039611563 0.21302845 -0.1328557 0.12622043
-0.08998489 -0.034857206 -0.12463248 -0.3833454 -0.037908956 0.51928926 1.0996978 0.56659114
0.40470225 0.75658387 0.8617432 0.25127465 0.2753813 0.36131752 -0.2891322 -1.3041365
0.12402093 -0.35533395 -0.72005653 0.16900821 0.28359127 0.19482201 0.2602288 0.16846375
1.3478898 0.12469368 0.10722451 0.80113244 0.25342527 -0.18898429 -0.2549807 -0.052788984
0.0111169955 0.9156182 -0.3654444 0.40682682 0.41900936 -0.51864976 -0.20308395 -0.24820134
-0.22273941 0.019018518 1.696988 -0.12108091 0.271637 0.9185995 -0.17918923 -0.23080757
-0.48286477 -0.11233181 -0.28735715 -1.0690109 -0.06306706 -0.035141714 -0.6303573 0.077188574
0.22622085 -0.32498866 0.025362397 0.04610833 1.4219748 -0.16895095 -0.023707686 0.8850489
-0.010764393 0.00069044187 -0.06751475 0.21711798 0.26265377 0.38417453 -0.3330911 0.13803221
-0.65622693 -0.2177448 -0.23737662 -0.38094807 -0.12617423 0.455175 0.91602665 0.37251964
0.6216221 0.89476514 -0.023096094 0.15094766 -0.10182912 -0.20487082 -0.87743175 -1.1609845
-0.025758848 -0.818891 0.034791235 0.22501183 0.11986167 0.4277068 0.31491226
00000000: 5977 953e 7a62 553f c671 9fbe 96c6 563e
00000010: 554b 373f 99a8 43bc 4484 19be 75e8 cdbe
00000020: c655 25be 4424 37bf d8e0 afbf 5bf4 183e
00000030: 16af 25bf e1cb 8abf ebf3 16be a22d 983e
00000040: b435 a93e 7288 b43e 4fef da3e f258 f43e
00000050: e3fc 493e bea9 d33e 5328 9b3e 5d43 013e
00000060: b506 2cbe 533b 2d3e 8d51 53be 4617 edbe
00000070: c086 80bf 7f3f 48bf a48e f2be a641 27bf
00000080: 5fcc 27bf 2867 08bd a608 6dbe 97b0 8cbe
00000090: bc3f 223d 2124 5a3e 530b 08be ee3f 013e
000000a0: ff49 b8bd 6ec6 0ebd 503f ffbd d945 c4be
000000b0: 6c46 1bbd 24f0 043f e6c2 8c3f 1e0c 113f
000000c0: 2235 cf3e 7baf 413f 349b 5c3f 12a7 803e
000000d0: c7fe 8c3e 9cfe b83e 2309 94be f2ed a6bf
000000e0: affe fd3d 55ee b5be a055 38bf 7d10 2d3e
000000f0: e032 913e 6c7f 473e b63c 853e c381 2c3e
00000100: a787 ac3f 665f ff3d 8698 db3d 0417 4d3f
00000110: f5c0 813e 1985 41be d58c 82be 4339 58bd
00000120: 0f24 363c f465 6a3f 871b bbbe 9b4b d03e
00000130: 6588 d63e 3bc6 04bf 3df5 4fbe 7e28 7ebe
00000140: cd15 64be b9cc 9b3c e736 d93f 45f9 f7bd
00000150: 0114 8b3e 5629 6b3f 627d 37be d258 6cbe
00000160: 0d3a f7be 380e e6bd 7a20 93be 59d5 88bf
00000170: 4e29 81bd c2f0 0fbd 195f 21bf 0b15 9e3d
00000180: 70a6 673e ea64 a6be cdc4 cf3c 17dc 3c3d
00000190: 4503 b63f 7a01 2dbe 9f36 c2bc 9192 623f
000001a0: 235d 30bc c5fe 343a 2c45 8abd 2d54 5e3e
000001b0: 8e7a 863e 86b2 c43e eb8a aabe 5158 0d3e
000001c0: 7dfe 27bf 7ef8 5ebe db12 73be a00b c3be
000001d0: d133 01be b30c e93e b980 6a3f e5ba be3e
000001e0: a022 1f3f 540f 653f 0534 bdbc 0692 1a3e
000001f0: c98b d0bd a8c9 51be 5e9f 60bf 249b 94bf
00000200: 3804 d3bc d7a2 51bf 4181 0e3d 8069 663e
00000210: 097a f53d 63fc da3e 2e3c a13e

raster_cnn_0.conv_block1.bn.weight f4 [5]
1.4306555 1.1528199 0.85307944 0.6661936 1.0332237
00000000: b81f b73f 9a8f 933f 6a63 5a3f aa8b 2a3f
00000010: ad40 843f

raster_cnn_0.conv_block1.bn.bias f4 [5]
-0.08099886 0.1845392 0.80196637 1.1914446 1.0991299
00000000: bbe2 a5bd d8f7 3c3e ab4d 4d3f 4281 983f
00000010: 4ab0 8c3f

raster_cnn_0.conv_block1.bn.running_mean f4 [5]
-10.706285 -85.28832 -25.40817 -42.407646 8.720366
00000000: f24c 2bc1 9f93 aac2 ef43 cbc1 6ea1 29c2
00000010: 9e86 0b41

raster_cnn_0.conv_block1.bn.running_var f4 [5]
2704.2285 54141.12 7462.555 19135.115 3392.9395
00000000: a803 2945 1f7d 5347 7134 e945 3b7e 9546
00000010: 080f 5445

raster_cnn_0.conv_block2.conv.weight f4 [9, 5, 1, 3]
-0.3341826 -0.2690908 1.4269322 0.039318237 -0.66037124 -0.5412786 -0.071558654 0.5598956
0.7186423 0.07887079 -0.44618103 -0.62276137 -0.079587474 -0.10149877 -0.37827864 0.5326352
-0.2883986 -0.29992023 1.2317201 -0.13860478 -1.1759318 0.41406727 0.15273434 -0.5034038
-0.45843995 0.26953503 0.11958205 -0.17034933 -0.33260855 0.41963118 -0.24711159 0.050820492
0.15879682 -0.67232805 0.14167143 0.57554996 0.11452915 -0.7145954 0.56020725 0.061980233
0.15854813 -0.22003521 -0.4105701 1.050762 -0.64725006 -0.062877074 0.3675381 0.16001815
0.31620044 -0.84223294 0.021898583 0.108427614 -1.0676215 0.124881946 -0.21116506 1.2584009
-0.19484083 0.06995285 -0.41750598 0.17626217 -0.13503158 -0.43710327 -0.040386766 -0.17881078
-1.0439101 -0.10075932 0.15331717 -1.4126829 0.2654284 -0.060411848 0.99365634 -0.456837
-0.007257033 -0.22164984 0.18553394 -0.18566358 -0.3973177 0.21100448 0.07388731 -0.29433602
-0.0975679 0.075694464 -0.25103208 -0.76024604 -0.26132149 0.15595113 1.6080496 0.13255756
-0.21682787 -0.42896602 -0.22840837 -0.12948108 0.8908456 0.63871616 0.25350952 0.30284786
-0.23988388 0.17118272 0.07173066 -0.16265374 0.5562973 1.3781667 0.11827996 0.38787112
0.7593355 -0.69706625 1.2179999 -0.47624305 0.17893793 -0.23679619 0.06102956 0.5564529
-0.5486158 -0.039061543 -0.6415987 0.5993036 0.008343117 0.47459143 -0.43199438 -0.008369695
-0.871318 -0.86734664 0.5323438 -0.3557117 -0.30619973 -0.08204037 0.654747 -0.21484163
0.26204953 -0.18097748 -0.25473842 0.19595337 0.003336507 1.2238857 -0.5948919
00000000: fb19 abbe 45c6 89be b7a5 b63f 290c 213d
00000010: 170e 29bf 3c91 0abf 588d 92bd 5155 0f3f
00000020: f1f8 373f 0287 a13d d771 e4be 4a6d 1fbf
00000030: c2fe a2bd 96de cfbd bdad c1be c85a 083f
00000040: fba8 93be 258f 99be 01a9 9d3f 69ee 0dbe
00000050: ef84 96bf a000 d43e 6466 1c3e 12df 00bf
00000060: a4b8 eabe 7f00 8a3e 6fe7 f43d 0e70 2ebe
00000070: ab4b aabe e6d9 d63e d20a 7dbe 2629 503d
00000080: a29b 223e b11d 2cbf 5112 113e 3e57 133f
00000090: 428e ea3d b9ef 36bf be69 0f3f fcde 7d3d
000000a0: 715a 223e e950 61be 3f36 d2be 5f7f 863f
000000b0: 2eb2 25bf b2c5 80bd f42d bc3e ccdb 233e
000000c0: 06e5 a13e 949c 57bf a864 b33c 4c0f de3d
000000d0: d2a7 88bf 1bc2 ff3d a73b 58be 4813 a13f
000000e0: 5b84 47be 7143 8f3d 58c3 d5be 127e 343e
000000f0: b845 0abe 00cc dfbe 986c 25bd 2c1a 37be
00000100: d99e 85bf e75a cebd 2dff 1c3e cbd2 b4bf
00000110: 3be6 873e 6a72 77bd 4360 7e3f 8ae6 e9be
00000120: 68cc edbb 2df8 62be 9cfc 3d3e 981e 3ebe
00000130: 3a6d cbbe 8f11 583e 3b52 973d 36b3 96be
00000140: aed1 c7bd b305 9b3d 4787 80be 7c9f 42bf
00000150: eecb 85be a7b1 1f3e 92d4 cd3f 2bbd 073e
00000160: 2008 5ebe 6fa1 dbbe e2e3 69be b096 04be
00000170: 750e 643f e782 233f 00cc 813e e00e 9b3e
00000180: 1fa4 75be 864a 2f3e 86e7 923d b48e 26be
00000190: 8069 0e3f c467 b03f c33c f23d 0b97 c63e
000001a0: d063 423f ef72 32bf 6ce7 9b3f 21d6 f3be
000001b0: 813b 373e b37a 72be 22fa 793d b273 0e3f
000001c0: 1672 0cbf fffe 1fbd d03f 24bf f66b 193f
000001d0: 92b1 083c a6fd f23e 5e2e ddbe 0c21 09bc
000001e0: b20e 5fbf 6e0a 5ebf af47 083f d81f b6be
000001f0: 36c6 9cbe c804 a8bd 809d 273f 72ff 5bbe
00000200: 5b2b 863e 2952 39be 136d 82be 00a8 483e
00000210: 4ca9 5a3b 49a8 9c3f d64a 18bf

raster_cnn_0.conv_block2.bn.weight f4 [9]
1.0859681 0.69179785 0.85651326 1.8690226 1.1915311 1.181908 0.79838485 0.8759885
1.1562036
00000000: 0101 8b3f aa19 313f 7444 5b3f 223c ef3f
00000010: 1784 983f c348 973f f362 4c3f c840 603f
00000020: 7bfe 933f

raster_cnn_0.conv_block2.bn.bias f4 [9]
-0.9149212 -0.05446604 0.0037412553 0.2584927 0.6030676 0.8315661 0.10909337 -0.05068937
0.84023464
00000000: 4738 6abf c817 5fbd d92f 753b 2859 843e
00000010: a362 1a3f 84e1 543f 586c df3d a89f 4fbd
00000020: 9e19 573f

raster_cnn_0.conv_block2.bn.running_mean f4 [9]
-1.049706 -0.19632615 -0.018082911 0.006350659 -1.3570517 0.029451173 4.605219 -0.010887009
0.21618176
00000000: c45c 86bf b909 49be 9d22 94bc 3019 d03b
00000010: dfb3 adbf 9643 f13c f45d 9340 6d5f 32bc
00000020: c05e 5d3e

raster_cnn_0.conv_block2.bn.running_var f4 [9]
0.6349023 0.4125965 0.30543965 0.88279146 2.076613 1.0539688 3.2400248 0.24858752
3.0315418
00000000: f588 223f d93f d33e 9662 9c3e 9ffe 613f
00000010: 3ae7 0440 73e8 863f 915c 4f40 ba8d 7e3e
00000020: c804 4240

raster_cnn_0.conv_block3.conv.weight f4 [18, 9, 3, 3]
-1.2262043 -2.278911 -0.4990528 -0.73274904 -1.3623077 -0.27642694 -1.2302659 -1.870149
-0.48836967 -0.053478118 0.085341945 -1.1406 -0.088540085 -0.01616841 -0.53491753 0.57102805
0.2692397 -0.8967077 -0.3125596 -0.15407781 0.57808876 -0.14402516 -0.26116073 0.35654977
-0.22189349 -0.12071777 0.6218991 -0.43227014 0.41634515 0.10543891 -0.2424194 0.65123034
-0.00929441 -0.6140538 0.538006 -0.20318012 -0.024481578 1.0268048 -0.0014744661 -0.1836793
0.6860835 -0.19768834 0.18032321 1.1951514 0.14556175 -0.20197494 0.41402143 -0.24273933
-0.21437216 0.3973452 -0.3990703 -0.40593868 0.24414444 -0.20147951 0.31956196 -0.09612183
0.048703287 0.12132901 -0.53161883 0.098486274 -0.66015387 -0.77574986 0.26459384 0.19803493
-0.7590082 -0.20354824 0.15486062 -0.6455942 -0.11373679 -0.2042252 -0.8533854 -0.41070455
0.29956555 0.45100537 0.22408432 0.23479247 0.34582132 0.16786379 0.5066248 0.5620838
0.24666078 -0.50656515 -0.56283975 -0.1729377 -0.2490853 -0.23926477 0.0772717 -0.3645314
-0.7899829 0.11187673 -0.06298594 -0.16220528 0.4917071 -0.009030345 -0.115677014 0.018102048
0.10691767 -0.14003338 0.23750164 0.41146722 0.06511886 0.22770512 0.09324224 -0.03874108
0.2502133 -0.19856192 0.23371825 0.12234866 -0.042553917 0.2983217 0.6085168 -0.29208764
0.27763793 0.094405204 -0.34905973 0.9700471 0.17719147 0.17370638 -0.31167856 -0.062520735
-0.028921856 -0.2522056 -0.2422929 -0.047304615 0.43597502 0.29198235 0.07824548 0.715114
0.10161562 -0.15714628 0.6695365 -0.077156 0.21870418 1.6316208 -0.035400033 0.14598991
-0.83989865 -0.07107865 0.16600397 -0.94165164 0.21811083 -0.3708239 -1.295957 -0.0141813075
-0.18816417 -0.7291361 -0.8284233 0.039483193 -0.47201064 -0.35078064 0.15325847 -0.6730003
-0.71992904 -0.00086717244 -1.4307895 -1.3658894 0.04702154 -0.9396032 -0.27458432 0.011010865
-1.9481355 -1.3418516 -0.163035 -0.688538 -1.2216105 0.0011624414 0.14546502 -0.15224536
-0.045831636 -0.13485678 0.2393583 0.112432465 -0.093504354 -0.38888168 -0.25821206 -0.103300355
0.07858287 0.0034820167 0.05528542 0.28997108 -0.40756452 -0.4871381 -0.010629327 0.2918424
0.006535457 0.08505688 0.22183686 0.3145691 0.024420058 -0.40236968 1.3478867 1.2913853
-0.22558905 0.13728042 0.27074346 0.2144587 -1.2042124 -1.1666024 -0.018929748 -0.015727848
0.5764139 0.22722448 -0.35751176 -0.2192396 0.28284177 -0.23827781 -0.63369995 0.11328576
1.5243205 0.5895211 -0.49255353 -0.08011877 -0.3348087 -0.05779249 -1.0107387 -0.620008
-0.36178228 0.5366432 0.21894272 -0.10132 0.11696706 -0.0836864 0.21283989 -0.7397991
-0.06863327 0.094646685 0.110827185 0.2629534 -0.13351418 -0.024975536 0.0041920603 -0.07188858
-0.43689808 -0.54399896 0.08293505 0.048920184 -0.27589637 -0.06988492 0.15031096 -0.020840375
-0.058097765 0.1531319 0.11143718 0.39876774 0.6859362 -0.5025839 0.46898013 0.18894243
-0.15229388 0.6510075 0.5835262 0.20627217 -0.56774986 -0.62301064 -0.6360925 -0.6537751
00000000: 43f4 9cbf aed9 11c0 d983 ffbe 7195 3bbf
00000010: 1960 aebf d587 8dbe 5a79 9dbf 0b61 efbf
00000020: 970b fabe df0b 5bbd c2c7 ae3d 2eff 91bf
00000030: 8154 b5bd 9d73 84bc 5bf0 08bf e52e 123f
00000040: c9d9 893e a38e 65bf d007 a0be 93c6 1dbe
00000050: a0fd 133f 557b 13be dcb6 85be b18d b63e
00000060: 0c38 63be e13a f7bd c834 1f3f 8352 ddbe
00000070: 312b d53e 5bf0 d73d cb3c 78be 08b7 263f
00000080: 9547 18bc a132 1dbf c3ba 093f 730e 50be
00000090: 978d c8bc 576e 833f df42 c1ba 6d16 3cbe
000000a0: 2ba3 2f3f d06e 4abe a6a6 383e b9fa 983f
000000b0: 240e 153e 85d2 4ebe 9efa d33e a990 78be
000000c0: 6084 5bbe d470 cb3e f152 ccbe 32d7 cfbe
000000d0: 0001 7a3e a550 4ebe a09d a33e 86db c4bd
000000e0: 197d 473d 587b f83d 2c18 08bf 2cb3 c93d
000000f0: d8ff 28bf 8b97 46bf d878 873e abc9 4a3e
00000100: 5d4e 42bf f36e 50be c893 1e3e a945 25bf
00000110: d6ee e8bd 6920 51be 7777 5abf de47 d2be
00000120: a860 993e 2dea e63e 5c76 653e 706d 703e
00000130: 7e0f b13e 7ce4 2b3e 2ab2 013f b9e4 0f3f
00000140: a594 7c3e 41ae 01bf 4416 10bf 9516 31be
00000150: 3810 7fbe d301 75be a040 9e3d dca3 babe
00000160: 523c 4abf a11f e53d c6fe 80bd 2419 26be
00000170: 08c1 fb3e 03f4 13bc 12e8 ecbd bf4a 943c
00000180: a7f7 da3d e964 0fbe a133 733e d5ab d23e
00000190: 095d 853d 882b 693e caf5 be3d f7ae 1ebd
000001a0: f51b 803e d153 4bbe d653 6f3e ef91 fa3d
000001b0: 044d 2ebd 9fbd 983e c2c7 1b3f 838c 95be
000001c0: 8f26 8e3e 8457 c13d f5b7 b2be 0255 783f
000001d0: ae71 353e 16e0 313e 5594 9fbe df0a 80bd
000001e0: 87ed ecbc 1821 81be a11b 78be 7cc2 41bd
000001f0: 1e38 df3e b67e 953e 2b3f a03d b611 373f
00000200: da1b d03d f4ea 20be be66 2b3f f703 9ebd
00000210: fdf3 5f3e f3d8 d03f a0ff 10bd 617e 153e
00000220: 9903 57bf af91 91bd f2fc 293e 1510 71bf
00000230: 7258 5f3e a1dc bdbe ebe1 a5bf b758 68bc
00000240: 1cae 40be aaa8 3abf 8d13 54bf 21b9 213d
00000250: 61ab f1be 8599 b3be caef 1c3e bf49 2cbf
00000260: 454d 38bf f552 63ba 1c24 b7bf 77d5 aebf
00000270: a999 403d d689 70bf 5196 8cbe ea66 343c
00000280: 815c f9bf cbc1 abbf a6f2 26be 0744 30bf
00000290: bc5d 9cbf 105d 983a c8f4 143e 35e6 1bbe
000002a0: f4b9 3bbd e517 0abe 581a 753e fe42 e63d
000002b0: 367f bfbd 801b c7be 5f34 84be 238f d3bd
000002c0: 0ef0 a03d 8c32 643b f772 623d 1777 943e
000002d0: 4cac d0be 2a6a f9be a126 2ebc 5e6c 953e
000002e0: 6327 d63b 4d32 ae3d 3429 633e 330f a13e
000002f0: 930c c83c 6603 cebe 8d87 ac3f 1d4c a53f
00000300: d100 67be 3d93 0c3e e39e 8a3e 109b 5b3e
00000310: a223 9abf 3a53 95bf 8f12 9bbc b0d7 80bc
00000320: dd8f 133f 89ad 683e c80b b7be 5880 60be
00000330: a3d0 903e 19ff 73be 293a 22bf 5d02 e83d
00000340: ef1c c33f dbea 163f fa2f fcbe 4f15 a4bd
00000350: 0c6c abbe d1b7 6cbd e35f 81bf d8b8 1ebf
00000360: 873b b9be 7361 093f 8532 603e dc80 cfbd
00000370: 6d8c ef3d c663 abbd b3f2 593e 7963 3dbf
00000380: 9a8f 8cbd 1fd6 c13d 5df9 e23d d4a1 863e
00000390: f1b7 08be 7f99 ccbc 8d5d 893b 523a 93bd
000003a0: 1bb1 dfbe 8443 0bbf dad9 a93d 8860 483d
000003b0: 4a42 8dbe d31f 8fbd 1eeb 193e 6fb9 aabc
000003c0: ecf7 6dbd 9cce 1c3e 2d39 e43d 492b cc3e
000003d0: 8499 2f3f 57a9 00bf 2a1e f03e 207a 413e
000003e0: edf2 1bbe 6da8 263f f961 153f 0339 533e
000003f0: 0e58 11bf a07d 1fbf f5d6 22bf ce5d 27bf

raster_cnn_0.conv_block3.bn.weight f4 [18]
1.2966605 1.5719435 1.0061643 0.98654044 1.3212957 0.94578266 0.80778265 0.91925806
1.6857297 1.1972694 0.92166764 0.88632375 1.0168911 0.75714576 2.283822 0.9337988
0.65493095 0.80708575
00000000: f9f8 a53f 7235 c93f fec9 803f ea8d 7c3f
00000010: 3820 a93f d01e 723f d8ca 4e3f 7f54 6b3f
00000020: fec5 d73f 2040 993f 69f2 6b3f 1de6 623f
00000030: 7d29 823f 4ed4 413f 242a 1240 700d 6f3f
00000040: 8ea9 273f 2c9d 4e3f

raster_cnn_0.conv_block3.bn.bias f4 [18]
0.5918603 0.06396743 -0.37295863 -0.04137412 -0.20500879 0.25311494 0.20746952 -0.14684977
0.5962036 -0.68649375 0.19762905 0.3210823 -0.36406896 -0.003999276 -0.38025826 0.24676317
0.4813866 0.5782611
00000000: 2884 173f 5b01 833d 6ff4 bebe e977 29bd
00000010: d3ed 51be 4898 813e e472 543e c95f 16be
00000020: cda0 183f 0ebe 2fbf 455f 4a3e e664 a43e
00000030: 3f67 babe 5c0c 83bb 36b1 c2be 7caf 7c3e
00000040: 4e78 f63e eb08 143f

raster_cnn_0.conv_block3.bn.running_mean f4 [18]
2.07127 -5.478674 -1.1496493 -1.3710268 -1.4602647 -2.295013 2.2333145 -0.839968
-4.52864 0.1755765 -5.43179 1.8754627 0.62409425 -0.9913544 -7.620195 -6.8077664
8.084803 11.340299
00000000: b08f 0440 4c51 afc0 b527 93bf ce7d afbf
00000010: f4e9 babf 7ee1 12c0 a0ee 0e40 2508 57bf
00000020: 9eea 90c0 53ca 333e 39d1 adc0 290f f03f
00000030: a4c4 1f3f 67c9 7dbf a3d8 f3c0 39d9 d9c0
00000040: 5a5b 0141 dd71 3541

raster_cnn_0.conv_block3.bn.running_var f4 [18]
74.98705 60.528507 6.533726 41.179935 43.512325 20.3954 11.441316 21.86907
62.597214 14.038205 22.961475 16.932987 10.831265 19.853586 119.553116 25.603724
18.896486 51.14105
00000000: 5ff9 9542 311d 7242 4914 d140 41b8 2442
00000010: 9f0c 2e42 c729 a341 a10f 3741 dbf3 ae41
00000020: 8c63 7a42 7d9c 6041 1ab1 b741 c276 8741
00000030: dd4c 2d41 25d4 9e41 321b ef42 6dd4 cc41
00000040: 012c 9741 6f90 4c42

raster_cnn_0.conv_block4.conv.weight f4 [32, 18, 1, 3]
-0.657217 -0.36554667 0.682225 0.5301324 -0.3627919 -0.23635346 0.76654977 0.14592257
-0.98854476 0.19398348 -0.16108112 -1.3473885 0.4864856 1.056246 -0.12080542 0.3091055
0.08679031 -0.29536518 0.5538552 0.67910445 -1.0615773 -0.22610806 0.24710408 -0.15899119
-0.717402 -0.32696697 1.6211481 -0.34687072 -0.5907046 -0.09882976 -0.36215666 0.619619
0.22413975 -0.0785421 0.0673015 -0.14956588 0.08867114 0.047821905 0.24871668 0.81693876
0.6327476 -1.3382593 0.2780194 -0.080502585 0.7427466 -0.03560717 -0.14242244 -0.22651508
0.050795544 0.2036636 -0.3859364 -0.074242026 0.13933185 -0.20175824 -0.64624184 -0.94326687
-0.70977545 -0.96546966 -0.8106247 -0.94399357 0.25519606 0.098559126 0.21655738 0.25023657
0.6121708 -0.39333802 0.1340987 0.05501784 0.2989424 0.9596225 0.38491756 0.90738875
-0.34497678 0.1166563 0.06687345 0.02810229 -0.20549224 -0.28239363 -0.0039598052 -1.2191335
-0.37138936 0.1863306 0.38431254 0.13962942 -0.11361502 -0.21678431 1.3880106 -0.0040408783
0.13131559 0.33405972 -0.15474169 -0.5273006 -0.4818472 0.5807506 0.09612678 -0.29267836
-0.15589106 -0.6701189 0.29100317 0.42411503 -0.30637062 -0.0027325265 -0.12208404 -0.40745664
0.20504537 0.50564075 0.60516787 0.26045707 0.5463279 -0.17609018 0.014398415 1.127053
-0.37292108 -0.72375643 0.3144011 -0.5733166 -0.49920723 -0.8270833 0.48816994 0.15768038
0.39352864 0.56941634 -0.7525602 -0.39411744 -0.19104582 0.062477898 -0.13783252 -0.10710238
-0.26440454 -0.27152607 0.17613985 0.73036736 -0.20980887 -0.038093816 0.57760954 -0.36312243
-0.7751471 -0.62579966 -0.57391566 0.09184956 0.34804642 0.4204769 -0.11330897 -0.5607087
1.1727418 0.9557667 -0.45943722 0.20661752 -0.14962387 -0.34900406 -0.57362896 0.34311962
-0.019491678 0.016521577 -0.3017929 -0.044970322 0.7215399 -0.7642388 -1.068372 0.25106403
-0.26190692 -0.2564286 -0.019248685 0.01853372 0.20915474 0.017058484 -0.058394823 -0.210581
-1.2937441 -0.6829037 -0.82060117 0.11832601 0.038170557 0.27890044 -0.98554236 0.24995628
-1.0459965 -0.27187356 0.18973926 -0.10233992 -0.6842355 -0.3576185 -0.3691835 -0.2094003
0.3874753 -0.15193118 -0.6190008 0.28687254 0.1662608 0.11309483 0.9935279 -0.04211499
0.11692941 -0.24131897 -0.77391285 -0.7111494 -0.43245202 -0.61228293 -0.07090139 -0.21473265
0.3427369 0.035538413 -0.49957725 -0.9972137 -0.8990512 0.21069336 0.46641317 1.0007212
0.99158627 0.34856352 -0.12163498 0.25263876 -0.54339135 -0.5654322 -0.4408508 -0.83387744
-0.19309291 -0.4605731 0.54203236 0.4300905 1.6277152 -0.16989356 0.12364602 0.08462894
-0.5715212 -0.27243024 -0.34844872 0.27028045 0.045699663 0.37916356 0.5967078 -0.06550304
-0.66201466 0.042379014 -0.45808312 -0.44068652 -0.018780665 0.0170649 -0.85047334 -0.4620409
-0.7196372 -1.3274664 0.2688226 0.15682884 0.08311606 -0.44917122 -0.9456981 -1.1330538
-1.0943526 0.048329562 0.06515547 -0.027208373 -0.14727087 0.730784 0.501504 0.086155705
00000000: 603f 28bf ef28 bbbe 4ca6 2e3f c2b6 073f
00000010: dcbf b9be a406 72be 9b3c 443f ba6c 153e
00000020: 4511 7dbf 9ba3 463e 73f2 24be 3a77 acbf
00000030: a414 f93e 1233 873f d568 f7bd 1343 9e3e
00000040: 1ebf b13d 1b3a 97be 74c9 0d3f cad9 2d3f
00000050: c4e1 87bf df88 67be da08 7d3e 96ce 22be
00000060: a8a7 37bf 3768 a7be c881 cf3f 0a99 b1be
00000070: 6b38 17bf 4267 cabd 996c b9be 5a9f 1e3f
00000080: e484 653e aeda a0bd 5ed5 893d cc27 19be
00000090: 3799 b53d e7e0 433d 96af 7e3e e622 513f
000000a0: bffb 213f 154c abbf 8f58 8e3e 8ade a4bd
000000b0: a424 3e3f d3d8 11bd 30d7 11be 92f3 67be
000000c0: fd0e 503d 318d 503e 7599 c5be 340c 98bd
000000d0: 02ad 0e3e b699 4ebe 1b70 25bf f079 71bf
000000e0: d8b3 35bf 0529 77bf 1a85 4fbf 90a9 71bf
000000f0: 0fa9 823e 5ed9 c93d 38c1 5d3e 021f 803e
00000100: 3ab7 1c3f 9a63 c9be 2b51 093e 635a 613d
00000110: fa0e 993e d2a9 753f ea13 c53e a14a 683f
00000120: cca0 b0be 80e9 ee3d f3f4 883d c636 e63c
00000130: 8f6c 52be e695 90be 41c1 81bb 910c 9cbf
00000140: bf26 bebe 73cd 3e3e 9dc4 c43e 04fb 0e3e
00000150: feae e8bd b5fc 5dbe 55aa b13f 5869 84bb
00000160: 9877 063e e009 ab3e 9b74 1ebe 2cfd 06bf
00000170: adb4 f6be 12ac 143f 1ede c43d f0d9 95be
00000180: e8a1 1fbe ea8c 2bbf 5efe 943e 9b25 d93e
00000190: 9cdc 9cbe 3014 33bb 3207 fabd 289e d0be
000001a0: 6af7 513e ac71 013f 48ec 1a3f a15a 853e
000001b0: 25dc 0b3f fc50 34be 54e7 6b3c 4643 903f
000001c0: 83ef bebe 1a48 39bf 2ef9 a03e e0c4 12bf
000001d0: 1798 ffbe bbbb 53bf 69f1 f93e f776 213e
000001e0: 967c c93e 45c5 113f c9a7 40bf c3c9 c9be
000001f0: 84a1 43be d3e8 7f3d f823 0dbe 7e58 dbbd
00000200: 0860 87be 7705 8bbe 015e 343e 5bf9 3a3f
00000210: 23d8 56be 4308 1cbd 38de 133f 2feb b9be
00000220: 0a70 46bf 6834 20bf 23ec 12bf 9f1b bc3d
00000230: 2433 b23e c048 d73e 890e e8bd 9b8a 0fbf
00000240: 671c 963f 20ad 743f 5b3b ebbe 8b93 533e
00000250: 0037 19be a9b0 b2be 59d9 12bf 60ad af3e
00000260: 03ad 9fbc 4258 873c 9984 9abe cd32 38bd
00000270: d7b6 383f 27a5 43bf 6ac0 88bf 778b 803e
00000280: aa18 86be 9c4a 83be 6baf 9dbc 07d4 973c
00000290: a92c 563e 3cbe 8b3c 692f 6fbd 8ca2 57be
000002a0: 6899 a5bf c7d2 2ebf eb12 52bf e854 f23d
000002b0: bb58 1c3d 0acc 8e3e 814c 7cbf 8af4 7f3e
000002c0: 37e3 85bf 0333 8bbe 024b 423e 9897 d1bd
000002d0: 0f2a 2fbf c619 b7be 9f05 bdbe 086d 56be
000002e0: 2a63 c63e d993 1bbe d676 1ebf f5e0 923e
000002f0: 4540 2a3e 439e e73d d857 7e3f c580 2cbd
00000300: b078 ef3d 521c 77be 271f 46bf e30d 36bf
00000310: 5a6a ddbe 93be 1cbf bf34 91bd e0e2 5bbe
00000320: 367b af3e ba90 113d 97c8 ffbe 6649 7fbf
00000330: 3828 66bf 00c0 573e b5cd ee3e a217 803f
00000340: 99d8 7d3f eb76 b23e c31b f9bd de59 813e
00000350: b21b 0bbf 2ac0 10bf 32b7 e1be fe78 55bf
00000360: 26ba 45be 3dd0 ebbe a2c2 0a3f d234 dc3e
00000370: f958 d03f 94f8 2dbe 203a fd3d f051 ad3d
00000380: 374f 12bf fa7b 8bbe df67 b2be 3362 8a3e
00000390: 922f 3b3d ba21 c23e d8c1 183f 7526 86bd
000003a0: cb79 29bf 9e95 2d3d df89 eabe aaa1 e1be
000003b0: e9d9 99bc b0cb 8b3c 9fb8 59bf a090 ecbe
000003c0: 253a 38bf 6bea a9bf 1ea3 893e bd97 203e
000003d0: c138 aa3d c5f9 e5be 4519 72bf e807 91bf
000003e0: bf13 8cbf 38f5 453d 3b70 853d 18e4 debc
000003f0: 2dce 16be a914 3b3f 9162 003f 6772 b03d

raster_cnn_0.conv_block4.bn.weight f4 [32]
0.9456131 0.5355085 0.84176856 0.8451557 0.86837274 0.97942305 1.074621 0.65815556
0.95285624 0.8782014 0.8144819 0.8797213 0.6988729 0.7928173 0.7282079 0.56545067
1.055245 0.7154572 0.77942604 0.9146256 0.5708612 0.866598 0.5392023 0.67070997
0.6160009 0.8733486 0.9263905 0.8810017 0.55345213 0.9560081 1.0311313 0.7602319
00000000: b313 723f 1617 093f 257e 573f 205c 583f
00000010: ad4d 5e3f 78bb 7a3f 2e8d 893f e27c 283f
00000020: 63ee 733f cfd1 603f e381 503f 6a35 613f
00000030: 56e9 323f 13f6 4a3f d56b 3a3f 60c1 103f
00000040: 4512 873f 3428 373f 7788 473f e724 6a3f
00000050: f623 123f 5ed9 5d3f 2909 0a3f a6b3 2b3f
00000060: 3cb2 1d3f c693 5f3f ee27 6d3f 5489 613f
00000070: 0aaf 0d3f f2bc 743f 1cfc 833f 8f9e 423f

raster_cnn_0.conv_block4.bn.bias f4 [32]
-0.34903935 0.1337764 -0.31840652 -0.48167533 -0.50677896 -0.50079 -0.29700288 -0.18369535
-0.36957824 -0.28562853 -0.3728647 -0.09957037 -0.5757288 -0.5874297 -0.09609586 -0.16695589
-0.2443844 -0.49242356 -0.17661224 -0.32312965 -0.025830673 -0.3151544 -0.024065489 -0.0816237
-0.25628212 -0.56967336 -0.1645873 -0.41360986 -0.103415795 -0.5070052 -0.46889597 -0.6226773
00000000: 49b5 b2be aefc 083e 2e06 a3be 269e f6be
00000010: 44bc 01bf c633 00bf c310 98be a21a 3cbe
00000020: 5c39 bdbe e73d 92be 1fe8 bebe 8deb cbbd
00000030: f662 13bf cb61 16bf e8cd c4bd 7cf6 2abe
00000040: e73f 7abe f11e fcbe d7d9 34be 4071 a5be
00000050: d99a d3bc eb5b a1be fd24 c5bc 542a a7bd
00000060: 6937 83be 1dd6 11bf 9389 28be acc4 d3be
00000070: a9cb d3bd 18cb 01bf 2213 f0be c867 1fbf

raster_cnn_0.conv_block4.bn.running_mean f4 [32]
0.60383296 -2.8955588 -1.2154528 -3.9379537 -3.05783 0.6446486 -8.313019 0.5214883
-0.29110023 -0.6891108 0.14898974 -0.08028608 -0.16371119 -0.93090916 0.357772 3.3588653
-1.7885556 2.2550883 -9.203018 -2.1292183 -3.3954694 0.7988387 1.0313061 -1.4390676
0.95843416 -0.003338481 -5.183992 0.08679949 -4.2618804 0.6626534 0.24100736 -3.5668194
00000000: cc94 1a3f d650 39c0 f593 9bbf 6f07 7cc0
00000010: 7db3 43c0 b107 253f 2002 05c1 4280 053f
00000020: 170b 95be 9169 30bf c490 183e 076d a4bd
00000030: e8a3 27be 1050 6ebf e42d b73e a6f7 5640
00000040: 64ef e4bf 5e53 1040 903f 13c1 1d45 08c0
00000050: 5f4f 59c0 b180 4c3f d701 843f 5e33 b8bf
00000060: f15b 753f 6bca 5abb 43e3 a5c0 eec3 b13d
00000070: 5361 88c0 a7a3 293f a2ca 763e c546 64c0

raster_cnn_0.conv_block4.bn.running_var f4 [32]
10.718742 14.558857 8.946776 15.001276 14.659091 11.419393 15.810496 13.869886
8.852222 8.102274 6.0137486 6.346981 6.724267 4.861197 10.808733 7.52528
22.72656 5.703506 20.573006 11.663725 9.771825 9.5135975 8.07682 7.453114
11.590739 5.6383348 17.111435 15.031774 7.2056494 7.8803854 7.494889 13.860046
00000000: f87f 2b41 14f1 6841 ff25 0f41 3a05 7041
00000010: a38b 6a41 d5b5 3641 cbf7 7c41 0eeb 5d41
00000020: b4a2 0d41 eaa2 0141 a170 c040 781a cb40
00000030: 322d d740 ed8e 9b40 92f0 2c41 18cf f040
00000040: ffcf b541 1f83 b640 8495 a441 9e9e 3a41
00000050: 6559 1c41 b237 1841 a83a 0141 e97f ee40
00000060: ab73 3941 3d6d b440 38e4 8841 2582 7041
00000070: ae94 e640 1e2c fc40 21d6 ef40 c0c2 5d41

raster_cnn_1.conv_block1.conv.weight f4 [5, 3, 3, 3]
-0.33133665 -0.8028094 0.28164324 0.8222167 -1.2296488 -0.12170988 0.86358875 -0.06862059
-0.31011453 -0.22681193 -0.8892103 -0.4250079 0.80947006 -0.52585226 -0.04480273 0.0446901
-0.14924905 -0.49035898 -0.24417287 -0.06411379 0.5017773 0.18379976 -0.6953278 -0.028812334
0.27407607 0.025664195 -0.25564948 -0.39571214 0.9854397 -0.5423782 -0.49052557 0.68977785
-0.45406973 -0.30550212 0.79218197 -0.23292053 -0.2231795 0.9226563 -0.32444987 -0.7114923
0.5173998 -0.31760436 -0.5706359 0.70393807 -0.055707917 -0.042559568 0.41755077 -0.22246212
-0.41306207 0.36655465 -0.27872187 -0.09965908 0.33355734 -0.068096146 -1.1436555 -0.8014636
0.050784405 -0.06944783 0.37596086 0.10655988 1.0549634 0.65622836 -0.19963486 -0.80744445
-0.4502442 0.22453587 -0.049837656 0.47075692 0.10179744 0.5228358 0.06306606 -0.2597388
-0.7364424 -0.6427678 0.076170504 -0.03549037 0.353745 0.1153998 0.9108586 0.21865647
-0.28477648 0.5824437 -0.16751495 -0.443881 0.23376684 0.8396274 0.047127813 -0.7004948
-0.7386766 0.4590672 0.43539858 -0.06448218 -0.35768437 0.25137892 0.911044 0.36313954
-0.8981028 -0.897871 0.03858557 0.56155044 0.14819294 -0.3942568 0.13440868 0.4055958
0.000749467 -0.6068219 -0.5347591 0.27416003 0.54880494 0.55147946 0.21296096 -0.32164487
-1.1079084 -0.67651665 -0.03526386 0.3541615 0.4874725 0.51190984 0.606672 0.25330564
-0.41051453 -1.381492 -0.7057217 -0.058455016 0.34334257 0.4614643 0.2971013 0.44344658
0.13000855 -0.1894519 -0.60166085 -0.52621377 -0.038835064 0.11865294 0.32315755
00000000: f5a4 a9be eb84 4dbf 8b33 903e cb7c 523f
00000010: 2265 9dbf 0843 f9bd 2714 5d3f f488 8cbd
00000020: 55c7 9ebe 6341 68be 49a3 63bf a39a d9be
00000030: 6e39 4f3f 419e 06bf 1183 37bd f70c 373d
00000040: bed4 18be 5510 fbbe 7408 7abe 174e 83bd
00000050: 7a74 003f 0136 3c3e 0101 32bf d807 ecbc
00000060: b353 8c3e b83d d23c 7de4 82be c89a cabe
00000070: c745 7c3f 4cd9 0abf 2b26 fbbe 4895 303f
00000080: d47b e8be c66a 9cbe 70cc 4a3f b882 6ebe
00000090: 2b89 64be 3433 6c3f 4b1e a6be 5c24 36bf
000000a0: 5074 043f 0a9d a2be 3215 12bf 4935 343f
000000b0: fc2d 64bd f152 2ebd 37c9 d53e 1ccd 63be
000000c0: df7c d3be 0dad bb3e a2b4 8ebe 0f1a ccbd
000000d0: 07c8 aa3e fe75 8bbd 4e63 92bf b82c 4dbf
000000e0: 4f03 503d aa3a 8ebd f17d c03e 113c da3d
000000f0: 0a09 873f 95fe 273f 156d 4cbe aeb4 4ebf
00000100: 6886 e6be bbec 653e 9222 4cbd 0d07 f13e
00000110: 2d7b d03d 91d8 053f c728 813d 7cfc 84be
00000120: 7d87 3cbf 6e8c 24bf 48ff 9b3d 5a5e 11bd
00000130: 111e b53e bb56 ec3d 072e 693f 7be7 5f3e
00000140: 39ce 91be 081b 153f 0a89 2bbe 5f44 e3be
00000150: 9360 6f3e d2f1 563f 1809 413d a153 33bf
00000160: e919 3dbf db0a eb3e 90ec de3e 3c0f 84bd
00000170: 6822 b7be bdb4 803e 2e3a 693f 6ded b93e
00000180: 11ea 65bf e0da 65bf e70b 1e3d c5c1 0f3f
00000190: e4bf 173e 07dc c9be 6ea2 093e 41aa cf3e
000001a0: e177 443a ae58 1bbf f9e5 08bf b45e 8c3e
000001b0: 7b7e 0c3f c22d 0d3f 7012 5a3e a3ae a4be
000001c0: f1cf 8dbf 3230 2dbf d670 10bd a854 b53e
000001d0: ff95 f93e 860c 033f db4e 1b3f 47b1 813e
000001e0: f62e d2be bbd4 b0bf 2daa 34bf 876e 6fbd
000001f0: 99ca af3e 0c45 ec3e a91d 983e 6e0b e33e
00000200: f620 053e aeff 41be 7206 1abf f2b5 06bf
00000210: 8411 1fbd 5000 f33d e874 a53e

raster_cnn_1.conv_block1.bn.weight f4 [5]
0.8258863 0.72796226 1.0288348 1.0582272 1.2401031
00000000: 496d 533f bc5b 3a3f dcb0 833f fd73 873f
00000010: b3bb 9e3f

raster_cnn_1.conv_block1.bn.bias f4 [5]
1.369101 0.038676362 0.65728223 0.82567275 1.0133407
00000000: b43e af3f 1b6b 1e3d a643 283f 4a5f 533f
00000010: 26b5 813f

raster_cnn_1.conv_block1.bn.running_mean f4 [5]
43.742023 -0.097880766 2.0112753 3.150417 6.96529
00000000: d5f7 2e42 b675 c8bd bcb8 0040 6fa0 4940
00000010: a8e3 de40

raster_cnn_1.conv_block1.bn.running_var f4 [5]
42766.156 3777.769 10365.572 5366.431 5230.698
00000000: 280e 2747 4e1c 6c45 4af6 2146 73b3 a745
00000010: 9675 a345

raster_cnn_1.conv_block2.conv.weight f4 [9, 5, 1, 3]
-0.3682407 -0.4982103 -0.14034331 0.10398042 0.30719388 0.08925826 -0.0035525097 -0.34786582
-0.087316535 -0.45693868 -0.9330095 -0.56242836 0.64549387 1.0815358 0.61149067 0.82320344
0.29678 -0.85725474 -0.24736278 -0.11916487 0.053272147 0.26865798 -0.74076664 -1.3782113
-0.0552726 0.34440047 0.4668629 0.2424933 -0.000902165 -0.13547817 -1.8761593 -0.56395966
0.1256343 -0.03265179 0.07617451 0.1165713 0.31202772 -0.20122707 -0.6177758 -0.089088984
0.12172423 0.09794542 -0.63123167 -0.42958337 -0.7164501 0.096734285 -0.3822862 0.19364119
-0.039516587 -0.13998464 -0.035523795 0.034187168 -1.208979 1.1647166 -0.16062805 0.8200606
-0.8002538 -0.10092523 0.6226207 -0.32709596 -0.5801293 1.6811669 0.011669988 0.32600355
-0.09165374 0.039964356 -0.0033583043 0.015966423 -0.11060532 0.2411524 -0.10609537 -0.04172728
-0.31767106 -0.20151779 -0.29679963 1.4340316 1.5179487 0.020338254 -0.0018283107 -0.9290855
-0.1283192 -0.060386304 -0.18625027 0.39599955 0.13939989 0.24978748 0.11235756 0.51005137
0.3302818 0.34997192 -0.20060039 -0.32378486 -0.20181209 2.3725235 0.58352065 0.23870748
0.117704906 -0.2585329 -0.19399656 0.10002166 0.04536604 -0.053530965 0.06442305 0.048858
0.039546512 -0.41806749 0.36389995 0.28996935 0.08527561 -0.4615067 0.0027184484 0.3529595
-0.69075847 -0.38506752 0.20351021 0.54210615 -0.054184496 -1.1347904 1.0747439 -0.16909336
0.06752318 0.10486557 0.1242443 -0.15594402 -0.0059655304 -0.25908795 -0.017083708 -0.11831767
0.116653025 -0.517496 1.4789821 -0.69177496 0.43512404 -1.1831086 0.28078115
00000000: 0c8a bcbe 6c15 ffbe 28b6 0fbe b0f3 d43d
00000010: 8448 9d3e 09cd b63d 39d1 68bb 781b b2be
00000020: 03d3 b2bd def3 e9be b6d9 6ebf 4efb 0fbf
00000030: 163f 253f c46f 8a3f a78a 1c3f 76bd 523f
00000040: 8cf3 973e 0c75 5bbf ab4c 7dbe b60c f4bd
00000050: e533 5a3d 8a8d 893e e2a2 3dbf 3a69 b0bf
00000060: 8665 62bd 4255 b03e a708 ef3e 2a50 783e
00000070: 457f 6cba caba 0abe fd25 f0bf a95f 10bf
00000080: 47a6 003e e2bd 05bd 6201 9c3d efbc ee3d
00000090: 19c2 9f3e 780e 4ebe 8e26 1ebf 4974 b6bd
000000a0: 8e4a f93d 9c97 c83d 6698 21bf 5af2 dbbe
000000b0: 4669 37bf a01c c63d 04bb c3be e049 463e
000000c0: 25dc 21bd 2258 0fbe 6681 11bd d807 0c3d
000000d0: d3bf 9abf 6f15 953f ae7b 24be 7eef 513f
000000e0: 6fdd 4cbf e3b1 cebd 1264 1f3f 1f79 a7be
000000f0: 5b83 14bf 7a30 d73f 7a33 3f3c f0e9 a63e
00000100: f5b4 bbbd aab1 233d ff16 5cbb 04cc 823c
00000110: 0b85 e2bd a8f0 763e 8848 d9bd 39ea 2abd
00000120: c8a5 a2be ae5a 4ebe 1ff6 97be 598e b73f
00000130: 254c c23f 699c a63c eda3 efba 8cd8 6dbf
00000140: 1c66 03be a157 77bd 64b8 3ebe 74c0 ca3e
00000150: d8be 0e3e 4ac8 7f3e b81b e63d ba92 023f
00000160: b21a a93e 852f b33e 306a 4dbe 21c7 a5be
00000170: d4a7 4ebe 6dd7 1740 9c61 153f bc6f 743e
00000180: 450f f13d 6d5e 84be 09a7 46be 28d8 cc3d
00000190: bed1 393d 4943 5bbd 3bf0 833d 541f 483d
000001a0: 86fb 213d f10c d6be 1851 ba3e dd76 943e
000001b0: fba4 ae3d 9b4a ecbe ff27 323b 1cb7 b43e
000001c0: 8cd5 30bf 9227 c5be fb64 503e 78c7 0a3f
000001d0: 90f0 5dbd d040 91bf 3591 893f cf26 2dbe
000001e0: 9849 8a3d c3c3 d63d cc73 fe3d caaf 1fbe
000001f0: 7f7a c3bb 2da7 84be 22f3 8bbc 8950 f2bd
00000200: c8e7 ee3d 9e7a 04bf 494f bd3f 2a18 31bf
00000210: 94c8 de3e 1a70 97bf 8cc2 8f3e

raster_cnn_1.conv_block2.bn.weight f4 [9]
1.2281283 1.4011103 0.9515974 0.9683573 0.9305025 1.4155664 0.85939306 1.2014357
1.1262914
00000000: 4f33 9d3f 9557 b33f e39b 733f 44e6 773f
00000010: 6935 6e3f 4831 b53f 2f01 5c3f a5c8 993f
00000020: 512a 903f

raster_cnn_1.conv_block2.bn.bias f4 [9]
-0.020874927 -0.20645341 0.501542 -0.048175115 0.38573125 -0.9749872 1.1402447 -0.16980843
-0.21240339
00000000: e501 abbc 8668 53be 0e65 003f 4553 45bd
00000010: 917e c53e c398 79bf 8af3 913f 43e2 2dbe
00000020: 4680 59be

raster_cnn_1.conv_block2.bn.running_mean f4 [9]
-0.85020477 -0.42709813 -5.8598647 -0.12052184 0.72780925 6.140024 0.023975061 0.04163327
-0.028345432
00000000: 05a7 59bf 9bac dabe 0384 bbc0 28d4 f6bd
00000010: b551 3a3f 147b c440 5967 c43c a687 2a3d
00000020: ae34 e8bc

raster_cnn_1.conv_block2.bn.running_var f4 [9]
4.866737 3.9111228 9.110211 2.302409 1.0504445 9.156214 2.7230165 2.2537954
1.5852392
00000000: 4fbc 9b40 d64f 7a40 6dc3 1141 ab5a 1340
00000010: f774 863f da7f 1241 e745 2e40 2f3e 1040
00000020: 1ee9 ca3f

raster_cnn_1.conv_block3.conv.weight f4 [18, 9, 3, 3]
-0.07708572 -1.1230435 -0.82532704 0.11935617 -1.2930038 -1.1826631 -0.102423266 -1.1874326
-0.89599776 -0.3964776 0.9815858 1.008555 -0.2571093 0.35711673 0.44624996 -0.32674402
0.27239528 -0.06287195 0.16060314 1.1175601 0.6792567 0.29484004 1.0608917 0.35097456
0.18109769 0.7218209 -0.3030599 0.50768864 0.35413566 0.40328887 0.43237603 0.32483464
0.14337234 0.45062506 0.94846416 0.8026586 -0.5249154 -0.34758237 -0.04056088 -0.23338062
0.22004104 0.42344698 -0.07575927 -0.051976245 0.4124187 0.17005979 -0.25489867 -0.2657935
0.2748997 -0.44504452 -0.19884342 0.02215294 -0.14073248 0.08843294 -0.36220795 0.32902038
0.25251332 0.22965132 -0.16162069 0.065039106 0.13728188 -0.6663696 -0.374317 0.08259534
0.008449612 -0.6966993 0.31186593 -0.27709237 -0.89727396 0.5468144 -0.65171206 -1.200424
-0.3801321 0.10220423 0.3755405 -0.50015247 0.09928825 0.447155 -0.29450926 -0.0010579769
0.3713733 0.15548003 0.4216879 -0.15982789 0.19634259 0.29789 -0.13623631 0.33487016
-0.013109492 -0.14912347 0.43295372 -0.09965694 -0.38374224 0.14533548 -0.4943081 -0.04514798
-0.47583765 -1.342359 -0.7196124 -1.0401113 -1.264063 0.7884802 -0.27648795 -0.7100805
0.80934334 0.27531874 0.3904439 1.2931767 0.47724253 0.76800716 0.19028276 0.18506697
0.19918433 0.33633107 0.2988883 0.41055998 0.3277679 0.21101643 -0.0056381766 -0.27107415
-0.020654395 0.3560248 0.49687192 -0.20538794 -0.11203314 0.43714616 1.0586087 1.9477191
-0.03776326 0.84878373 1.2046865 -0.43015042 0.54740864 0.6668208 -1.0688399 -0.114077784
-0.85655457 -0.79581076 -0.14332214 -0.09310022 0.20714477 -0.4347793 -0.36198646 0.1964882
0.37947503 0.6950155 0.51208127 0.4717723 0.51396173 -0.29977813 0.43177763 0.2567049
-0.5027635 0.06044326 -0.06223273 -0.049388126 -0.20950004 -0.07176147 0.03362962 -0.31645006
-0.46800217 -0.37442124 0.24726911 0.28298566 0.32386747 0.12825248 -0.09009034 0.28398928
0.00025567488 -0.2852057 0.2737196 0.2737884 0.21040128 -0.13685271 0.3495264 0.09361802
-0.079472594 0.29070133 -0.10645127 -0.23156984 0.32468644 0.34133175 0.34536186 -0.17029066
-0.014945936 -0.035578467 -0.41308078 0.03931936 0.07117751 -0.3341314 0.10065831 0.22419049
-0.42426875 0.41412956 0.09487367 -0.54624486 0.412444 -0.14647776 0.069803745 -0.4984078
0.49633121 -0.020050587 -0.41517344 0.23125924 -0.07778543 -0.55551726 0.7203024 -0.44189844
-0.5160183 0.22146334 -0.07459457 -0.05645839 0.32601976 0.06821811 -0.111271575 0.4366991
0.013313587 -1.6390227 1.1627513 -0.15226634 -1.4233152 0.79774326 -0.11844647 -1.0874294
1.8272755 0.14547972 -0.72280854 0.2649174 0.1484154 -0.8910391 0.3141722 -0.17588927
-0.7841281 0.06508653 -0.044681843 0.0794595 0.10925911 0.10146997 -0.08802467 0.05208414
-0.1119889 -0.3223853 0.045164928 0.27640012 0.41362545 0.10616331 0.46131042 0.07189123
0.077528305 0.14510864 0.5016626 0.3481024 0.6493546 -0.16979903 1.0081673 0.3514707
00000000: 1edf 9dbd e4bf 8fbf a248 53bf 0271 f43d
00000010: 2681 a5bf 8161 97bf 4ac3 d1bd cbfd 97bf
00000020: 1c60 65bf 1dff cabe 3549 7b3f 5518 813f
00000030: d5a3 83be 01d8 b63e e07a e43e fe4a a7be
00000040: 6577 8b3e 02c3 80bd 2675 243e 360c 8f3f
00000050: c4e3 2d3f 46f5 963e 4dcb 873f f0b2 b33e
00000060: ac71 393e 41c9 383f ab2a 9bbe e2f7 013f
00000070: 4551 b53e e17b ce3e 6460 dd3e ba50 a63e
00000080: 33d0 123e 54b8 e63e 8cce 723f 097b 4d3f
00000090: db60 06bf 51f6 b1be 2a23 26bd 54fb 6ebe
000000a0: 7052 613e 0bce d83e ad27 9bbd 0be5 54bd
000000b0: 8b28 d33e 2724 2e3e 1482 82be 1616 88be
000000c0: a7bf 8c3e e0dc e3be 9c9d 4bbe 157a b53c
000000d0: 2d1c 10be 541c b53d 5273 b9be 5c75 a83e
000000e0: 6d49 813e b729 6b3e e57f 25be 3933 853d
000000f0: 9f93 0c3e 3397 2abf 7aa6 bfbe bf27 a93d
00000100: 3e70 0a3c e35a 32bf e4ac 9f3e 0ddf 8dbe
00000110: bfb3 65bf 07fc 0b3f 9ad6 26bf 7ea7 99bf
00000120: ada0 c2be 7450 d13d d846 c03e fe09 00bf
00000130: a357 cb3d 80f1 e43e ebc9 96be d0ab 8aba
00000140: a424 be3e 2836 1f3e 7ae7 d73e eca9 23be
00000150: 080e 493e 0a85 983e 8881 0bbe 1a74 ab3e
00000160: 32c9 56bc d3b3 18be 1cac dd3e f018 ccbd
00000170: dd79 c4be d3d2 143e f415 fdbe 17ed 38bd
00000180: fea0 f3be 6bd2 abbf 8538 38bf 5e22 85bf
00000190: d1cc a1bf d7d9 493f d48f 8dbe d6c7 35bf
000001a0: 2031 4f3f 94f6 8c3e 43e8 c73e d086 a53f
000001b0: 2259 f43e 1e9c 443f 7cd9 423e 3282 3d3e
000001c0: faf6 4b3e 9633 ac3e e307 993e eb34 d23e
000001d0: 32d1 a73e b114 583e 74c0 b8bb 3bca 8abe
000001e0: 6833 a9bc e248 b63e ff65 fe3e 3751 52be
000001f0: a271 e5bd 9fd1 df3e 7d80 873f dc4e f93f
00000200: a6ad 1abd e449 593f 2b33 9a3f ad3c dcbe
00000210: f922 0c3f c5b4 2a3f bfcf 88bf 9da1 e9bd
00000220: 2947 5bbf 41ba 4bbf 0ac3 12be 54ab bebd
00000230: c21d 543e 649b debe 4a56 b9be 3434 493e
00000240: 8d4a c23e 89ec 313f c217 033f 248c f13e
00000250: ff92 033f 857c 99be f511 dd3e d36e 833e
00000260: 1cb5 00bf 5a93 773d bfe7 7ebd 344b 4abd
00000270: 2e87 56be adf7 92bd 36bf 093d be05 a2be
00000280: fb9d efbe 24b4 bfbe 1d34 7d3e 7fe3 903e
00000290: f5d1 a53e 9e54 033e 4981 b8bd 0b67 913e
000002a0: 1a0c 8639 7b06 92be fa24 8c3e fe2d 8c3e
000002b0: 6f73 573e 1e23 0cbe 20f5 b23e ceba bf3d
000002c0: 87c2 a2bd ced6 943e 2003 dabd a520 6dbe
000002d0: 4d3d a63e 09c3 ae3e 45d3 b03e ad60 2ebe
000002e0: cddf 74bc baba 11bd 537f d3be 560d 213d
000002f0: 84c5 913d 4513 abbe f225 ce3d 3192 653e
00000300: c139 d9be ca08 d43e 204d c23d b4d6 0bbf
00000310: dc2b d33e 44fe 15be 44f5 8e3d 4f2f ffbe
00000320: 201f fe3e 2141 a4bc 9d91 d4be 39cf 6c3e
00000330: f84d 9fbd 6136 0ebf bd65 383f 8340 e2be
00000340: c619 04bf 49c7 623e 0ac5 98bd ea40 67bd
00000350: 10ec a63e f0b5 8b3d 5ae2 e3bd 0697 df3e
00000360: 3b21 5a3c 7fcb d1bf 09d5 943f b5eb 1bbe
00000370: 312f b6bf e738 4c3f 1094 f2bd e330 8bbf
00000380: 2ae4 e93f a3f8 143e fb09 39bf 41a3 873e
00000390: 35fa 173e 231b 64bf 2edb a03e 511c 34be
000003a0: 9fbc 48bf 164c 853d 4f04 37bd aabb a23d
000003b0: 3ec3 df3d 7dcf cf3d 4746 b4bd 2e56 553d
000003c0: 705a e5bd b00f a5be dcfe 383d 5184 8d3e
000003d0: b7c6 d33e 266c d93d e130 ec3e b63b 933d
000003e0: 29c7 9e3d 5c97 143e f66c 003f 7a3a b23e
000003f0: 1a3c 263f ccdf 2dbe a00b 813f f8f3 b33e

raster_cnn_1.conv_block3.bn.weight f4 [18]
1.0197237 0.8042559 1.1205406 1.006849 1.9052132 1.0898986 0.87316895 1.0743089
0.8749217 0.6479825 1.0547118 1.4360924 0.67109185 0.989722 1.0819712 1.8966922
1.1152415 0.80515194
00000000: 4e86 823f b7e3 4d3f e06d 8f3f 6ee0 803f
00000010: 07de f33f cc81 8b3f 0088 5f3f f482 893f
00000020: defa 5f3f 2ee2 253f cc00 873f e0d1 b73f
00000030: adcc 2b3f 6c5e 7d3f 087e 8a3f cfc6 f23f
00000040: 3cc0 8e3f 701e 4e3f

raster_cnn_1.conv_block3.bn.bias f4 [18]
0.75908875 0.29416826 -0.23611368 1.1291739 -0.3963509 -0.36541682 1.0012772 -0.031431995
0.32247132 0.26273447 -0.24139763 0.053096734 0.2076259 -0.22764182 0.7268232 -1.0085188
0.7466622 -0.037879504
00000000: a453 423f 399d 963e c9c7 71be c588 903f
00000010: 81ee cabe ea17 bbbe da29 803f d6be 00bd
00000020: f61a a53e 2285 863e f130 77be f67b 593d
00000030: e29b 543e f01a 69be 1611 3a3f 2517 81bf
00000040: 4125 3f3f 8a27 1bbd

raster_cnn_1.conv_block3.bn.running_mean f4 [18]
1.1216236 -0.23739639 -1.0698311 7.919114 -8.4927025 -1.3597932 11.130593 -0.6353184
-2.851859 4.8249607 -4.0179753 -4.3378468 -1.3393918 -6.1977468 -1.453827 -4.9893494
-0.090928905 -2.405514
00000000: 5d91 8f3f 0a18 73be 3af0 88bf 6269 fd40
00000010: 1ce2 07c1 b40d aebf e916 3241 3aa4 22bf
00000020: dc84 36c0 1466 9a40 4193 80c0 a4cf 8ac0
00000030: 3171 abbf f153 c6c0 0117 babf c0a8 9fc0
00000040: ef38 babd f1f3 19c0

raster_cnn_1.conv_block3.bn.running_var f4 [18]
22.150576 19.03193 27.208487 38.57321 42.15073 11.032661 37.007957 13.698256
11.678039 12.095152 20.488766 34.629616 13.756794 14.351861 26.57849 55.002846
31.723932 13.28899
00000000: 6134 b141 6541 9841 fbaa d941 f84a 1a42
00000010: 599a 2842 c885 3041 2608 1442 0e2c 5b41
00000020: 3fd9 3a41 be85 4141 fee8 a341 ba84 0a42
00000030: d41b 5c41 39a1 6541 bfa0 d441 ea02 5c42
00000040: 9dca fd41 b49f 5441

raster_cnn_1.conv_block4.conv.weight f4 [32, 18, 1, 3]
0.011033446 0.1109295 -0.34661672 -0.33671734 -0.2041334 -0.32717985 0.7127711 0.93016523
1.0299857 0.14865078 -0.6200895 -0.8832119 0.5335831 0.06571793 -1.2475948 -0.07073262
0.36861783 0.69268143 0.47287393 0.9007328 0.97206604 0.041351903 0.23515955 -0.24364337
0.0010652874 -0.35463393 0.016530633 0.02047334 -0.12113023 -0.7025784 -0.15190116 0.43571386
0.62355244 0.012094394 0.023590883 0.5095187 -0.059818767 -0.17700297 -0.46766868 -0.28689215
-0.6520924 -0.8111696 0.12280678 -0.29630384 -0.7378097 0.07557641 0.20889366 1.7917463
-0.429486 -0.16735949 -0.13936394 0.22305304 0.44990647 0.5720298 0.3313491 0.21891862
-0.10194216 -0.8065023 -0.23743829 0.23214138 -0.36021706 -1.3250561 -0.6417766 -0.43687466
-0.53697723 -0.40797153 -0.8828994 -0.8345754 -0.84731114 0.005734576 0.8093226 1.0652555
0.29755735 -0.21654147 -0.098108485 0.50782293 0.6719349 0.29323375 -0.16769423 -0.107677445
-0.076789275 -0.34853202 -0.8387978 -0.617996 -0.3192522 -0.4144944 -0.7418859 -0.28806424
-0.5847887 -0.04385406 -0.3145879 -0.19105281 0.17429289 -0.2219592 0.07634317 0.028428024
0.7666292 0.88363606 0.0026643763 -0.42417708 -0.11099138 -0.77045524 -0.26189256 -0.39039013
-0.68873 0.462393 0.45618108 0.15108967 0.23900916 0.87575775 0.20444022 0.48241487
-0.10877667 -0.022417111 0.24841125 0.22151355 0.033333063 -0.53180414 -1.3551471 -0.30815214
0.19457121 -0.3251752 0.17395009 0.52242637 0.11472177 0.041139755 -0.08327513 -0.3806214
0.33991188 0.08169332 -0.0920358 -0.09039423 0.9814047 0.86547494 0.765591 -0.42053926
-1.2131461 -0.24009876 -0.3740307 -1.186403 0.24933887 -0.877015 -1.0126374 -0.42954803
-0.18354572 -0.15586774 0.12118477 0.035604257 0.041938253 0.5310629 -0.6412991 -0.8904121
-0.08519324 0.01416575 0.5815075 0.35434958 0.45102254 0.42873433 -0.10943334 0.20028113
0.2423251 -0.22052094 0.16413622 -0.34549293 0.08464951 -0.34545064 0.4977642 0.80446786
-0.7529622 -0.6855149 -0.12827632 -0.4659766 -0.84299207 -1.0881041 0.5367551 0.97826594
1.0172838 -0.86615723 0.17756128 0.52697885 0.32742453 0.109259546 0.29207364 -0.46655378
-1.0542835 -0.517753 -0.06240828 0.6082535 0.19065736 0.14852163 0.059511013 0.19163844
0.4394668 -0.072083466 0.22291237 0.36439967 -0.73385936 -0.31553313 0.2489497 0.52127457
0.19396116 -0.02422677 -0.13064384 -0.14648516 0.66812015 0.12773731 -1.0516118 -0.10208775
0.59985924 0.41645125 0.17599961 0.054729268 -0.07743604 -0.3995153 -0.24696544 -0.26143417
0.29853028 -0.5213534 -0.5333422 -0.3056722 -0.7273166 -0.9400517 -0.2285627 -0.071033545
-0.24428044 0.32891077 0.2411841 -0.29236266 0.22753435 0.04958788 -0.059317198 -0.720708
-0.27519277 -0.04545117 -0.41836023 -0.39134058 0.6334229 -0.45572206 -0.13660045 -0.13316067
-0.38126534 -1.4518281 -1.5933696 0.36069193 0.010026017 -0.20499824 0.16379578 0.8958904
0.21752688 0.4251299 0.445853 1.0996866 -0.024299651 -0.078177184 -0.08602986 0.06837184
00000000: a0c5 343c 012f e33d bf77 b1be 3766 acbe
00000010: 5908 51be 1e84 a7be 2b78 363f 4f1f 6e3f
00000020: 92d6 833f e937 183e 2fbe 1ebf 2d1a 62bf
00000030: e798 083f 1f97 863d 30b1 9fbf 44dc 90bd
00000040: 7abb bc3e 9253 313f 881c f23e 6d96 663f
00000050: 52d9 783f 9d60 293d aacd 703e a67d 79be
00000060: 1da1 8b3a 9492 b5be 406b 873c b5b7 a73c
00000070: 2013 f8bd 2edc 33bf fa8b 1bbe e315 df3e
00000080: 22a1 1f3f 9127 463c ab41 c13c d16f 023f
00000090: 8604 75bd 4440 35be 4572 efbe 87e3 92be
000000a0: 87ef 26bf d0a8 4fbf 1f82 fb3d 23b5 97be
000000b0: 19e1 3cbf cec7 9a3d 38e8 553e f157 e53f
000000c0: 97e5 dbbe 4960 2bbe 6cb5 0ebe 0468 643e
000000d0: 245a e63e 8c70 123f 97a6 a93e 342c 603e
000000e0: 0dc7 d0bd ef76 4ebf 0623 73be 78b6 6d3e
000000f0: 5f6e b8be 709b a9bf 794b 24bf 09ae dfbe
00000100: 5777 09bf a5e1 d0be b205 62bf bca6 55bf
00000110: 62e9 58bf 1ce9 bb3b c42f 4f3f 4b5a 883f
00000120: 7059 983e 0cbd 5dbe 1aed c8bd af00 023f
00000130: ed03 2c3f bc22 963e 09b8 2bbe fe85 dcbd
00000140: b243 9dbd ca72 b2be 74bb 56bf fc34 1ebf
00000150: 0675 a3be 9c38 d4be 3cec 3dbf 287d 93be
00000160: b6b4 15bf 51a0 33bd aa11 a1be 59a3 43be
00000170: d679 323e 4649 63be cf59 9c3d e3e1 e83c
00000180: d041 443f f935 623f d19c 2e3b bd2d d9be
00000190: 734f e3bd 8e3c 45bf c816 86be 37e1 c7be
000001a0: 9c50 30bf c6be ec3e 9190 e93e 40b7 1a3e
000001b0: d1be 743e a931 603f c758 513e 15ff f63e
000001c0: 4ec6 debd 17a4 b7bc 855f 7e3e 73d4 623e
000001d0: 4088 083d 5124 08bf 7675 adbf 1ec6 9dbe
000001e0: ad3d 473e 5d7d a6be f91f 323e bcbd 053f
000001f0: 3ff3 ea3d 2982 283d 278c aabd cfe0 c2be
00000200: ee08 ae3e d44e a73d 447d bcbd 9c20 b9bd
00000210: 573d 7b3f c48f 5d3f c6fd 433f ec50 d7be
00000220: 5f48 9bbf 73dc 75be f480 bfbe 0edc 97bf
00000230: b052 7f3e 0e84 60bf 1a9e 81bf b8ed dbbe
00000240: 69f3 3bbe cb9b 1fbe b82f f83d c5d5 113d
00000250: 72c7 2b3d bdf3 073f 2e2c 24bf 0cf2 63bf
00000260: cb79 aebd 7617 683c addd 143f 4f6d b53e
00000270: 6dec e63e 1183 db3e 961e e0bd 7f16 4d3e
00000280: 1224 783e 3ed0 61be 5313 283e 73e4 b0be
00000290: b95c ad3d e8de b0be f3da fe3e 9bf1 4d3f
000002a0: 21c2 40bf e87d 2fbf de5a 03be 7c94 eebe
000002b0: 54ce 57bf ff46 8bbf c868 093f a36f 7a3f
000002c0: 5b36 823f 7bbc 5dbf a0d2 353e 16e8 063f
000002d0: 30a4 a73e 78c3 df3d ad8a 953e 23e0 eebe
000002e0: c3f2 86bf 768b 04bf d39f 7fbd 80b6 1b3f
000002f0: af3b 433e 0e16 183e d2c1 733d de3c 443e
00000300: cb01 e13e 7fa0 93bd 2443 643e 9892 ba3e
00000310: 35de 3bbf 8f8d a1be acec 7e3e 4072 053f
00000320: c19d 463e 3877 c6bc 80c7 05be 3500 16be
00000330: ec09 2b3f 92cd 023e 379b 86bf 6213 d1bd
00000340: 6090 193f 1939 d53e 3e39 343e cc2b 603d
00000350: c996 9ebd 458d ccbe 82e4 7cbe b3da 85be
00000360: f6d8 983e 6b77 05bf 1d89 08bf 1181 9cbe
00000370: 6c31 3abf 3aa7 70bf 570c 6abe 097a 91bd
00000380: a724 7abe fe66 a83e f7f8 763e 8fb0 95be
00000390: c4fe 683e a91c 4b3d 97f6 72bd 5280 38bf
000003a0: 11e6 8cbe 022b 3abd 5033 d6be cb5d c8be
000003b0: 0128 223f 6754 e9be fde0 0bbe 455b 08be
000003c0: 3635 c3be 81d5 b9bf 89f3 cbbf 9dac b83e
000003d0: 2a44 243c 0feb 51be 15ba 273e 1359 653f
000003e0: 5ebf 5e3e a0aa d93e d846 e43e 88c2 8c3f
000003f0: 1010 c7bc 5c1b a0bd 6c30 b0bd 8906 8c3d

raster_cnn_1.conv_block4.bn.weight f4 [32]
0.55224484 0.852547 0.9179359 0.8241168 0.8389476 1.065826 1.5612866 0.8818261
0.58854 0.8412582 0.6982092 1.4759742 0.6451412 0.60320514 0.9235672 0.82683814
0.6259094 0.5683619 0.9092666 1.292307 0.7095209 0.86642087 0.86818546 0.6175531
1.1123585 1.0373013 0.77719235 0.78414255 0.89158994 0.58291835 1.0441995 0.8220263
00000000: eb5f 0d3f 8540 5a3f d9fd 6a3f 52f9 523f
00000010: 45c5 563f fd6c 883f 3dd8 c73f 5bbf 613f
00000020: 8faa 163f b35c 573f d7bd 323f b9ec bc3f
00000030: f927 253f a76b 1a3f e66e 6c3f aaab 533f
00000040: 993b 203f 2a80 113f b2c5 683f 516a a53f
00000050: 29a3 353f c2cd 5d3f 6741 5e3f f617 1e3f
00000060: c361 8e3f 4ac6 843f 14f6 463f 91bd 483f
00000070: 3d3f 643f 233a 153f 54a8 853f 5170 523f

raster_cnn_1.conv_block4.bn.bias f4 [32]
0.14863619 -0.4322621 -0.37743914 -0.5231493 -0.28558198 -0.59605914 -0.8782789 -0.1579883
-0.20821057 -0.12118174 -0.2625452 -0.68341243 -0.19730237 -0.31134596 -0.67060333 -0.46725076
-0.29644173 0.10828569 -0.15175176 -0.6185537 -0.22984818 -0.43566564 -0.5501929 -0.09197773
-0.6478382 -0.32490247 -0.18087836 -0.4234859 -0.45813167 -0.2706889 -0.41089976 -0.3390116
00000000: 1634 183e 7551 ddbe b43f c1be 1ded 05bf
00000010: cd37 92be 5597 18bf e3d6 60bf afc7 21be
00000020: 2735 55be 222e f8bd 536c 86be 1ef4 2ebf
00000030: a209 4abe bd68 9fbe a9ac 2bbf 7e3b efbe
00000040: 36c7 97be e3c4 dd3d d064 1bbe 8959 1ebf
00000050: 525d 6bbe 910f dfbe 71d9 0cbf d25e bcbd
00000060: b9d8 25bf 9e59 a6be 2d38 39be 25d3 d8be
00000070: 3c90 eabe bc97 8abe 7461 d2be ee92 adbe

raster_cnn_1.conv_block4.bn.running_mean f4 [32]
-0.259746 -4.7243996 -2.75338 -1.7390376 -1.930197 0.39141086 -6.663733 -3.0137527
-1.7213104 -6.8353014 2.0670936 0.22749884 -3.1163235 2.9652832 -0.23281127 -2.5006151
5.489953 -1.5514989 -4.676645 -11.116258 -2.730831 -1.0093043 -5.205483 -3.3944669
-3.9758298 -8.7870035 3.2794867 -1.3664663 0.20208201 -1.3585418 -0.9313856 -1.9148057
00000000: 6dfd 84be 482e 97c0 6137 30c0 c998 debf
00000010: b210 f7bf 0167 c83e 4d3d d5c0 53e1 40c0
00000020: e653 dcbf caba dac0 434b 0440 75f5 683e
00000030: d871 47c0 33c7 3d40 1466 6ebe 140a 20c0
00000040: b2ad af40 8497 c6bf 13a7 95c0 31dc 31c1
00000050: efc5 2ec0 e230 81bf 5193 a6c0 f23e 59c0
00000060: ff73 7ec0 9197 0cc1 1ce3 5140 5ee8 aebf
00000070: 96ee 4e3e b3e4 adbf 496f 6ebf 5a18 f5bf

raster_cnn_1.conv_block4.bn.running_var f4 [32]
12.601088 7.347662 12.399005 9.429485 14.313493 13.8292885 42.58944 9.538042
8.956616 9.091289 8.199848 11.319194 4.842595 7.5667357 14.612121 9.565648
20.460243 11.328794 11.71646 19.70259 8.442722 19.465105 11.581306 10.085385
14.9895115 20.531088 11.3507185 9.542428 6.51728 8.238824 10.287237 9.297521
00000000: 0e9e 4941 0c20 eb40 5362 4641 2cdf 1641
00000010: 1104 6541 c444 5d41 965b 2a42 d29b 1841
00000020: 4d4e 0f41 eb75 1141 9432 0341 6b1b 3541
00000030: 8af6 9a40 b322 f240 3fcb 6941 e50c 1941
00000040: 94ae a341 bd42 3541 9f76 3b41 e89e 9d41
00000050: 6415 0741 89b8 9b41 084d 3941 bd5d 2141
00000060: 0ad5 6f41 ab3f a441 8b9c 3541 c9ad 1841
00000070: 8f8d d040 39d2 0341 8698 2441 a5c2 1441
